node {
  name: "load_images/input_producer/Const"
  op: "Const"
  attr {
    key: "_output_shapes"
    value {
      list {
        shape {
          dim {
            size: 40
          }
        }
      }
    }
  }
  attr {
    key: "dtype"
    value {
      type: DT_STRING
    }
  }
  attr {
    key: "value"
    value {
      tensor {
        dtype: DT_STRING
        tensor_shape {
          dim {
            size: 40
          }
        }
        string_val: "gprdata_input/amp/val\\RebarCorrosion_i106_n4.png"
        string_val: "gprdata_input/amp/val\\RebarCorrosion_i107_n1.png"
        string_val: "gprdata_input/amp/val\\RebarCorrosion_i112_n3.png"
        string_val: "gprdata_input/amp/val\\RebarCorrosion_i115_n4.png"
        string_val: "gprdata_input/amp/val\\RebarCorrosion_i127_n1.png"
        string_val: "gprdata_input/amp/val\\RebarCorrosion_i128_n4.png"
        string_val: "gprdata_input/amp/val\\RebarCorrosion_i134_n1.png"
        string_val: "gprdata_input/amp/val\\RebarCorrosion_i137_n4.png"
        string_val: "gprdata_input/amp/val\\RebarCorrosion_i148_n3.png"
        string_val: "gprdata_input/amp/val\\RebarCorrosion_i150_n3.png"
        string_val: "gprdata_input/amp/val\\RebarCorrosion_i151_n4.png"
        string_val: "gprdata_input/amp/val\\RebarCorrosion_i153_n3.png"
        string_val: "gprdata_input/amp/val\\RebarCorrosion_i154_n1.png"
        string_val: "gprdata_input/amp/val\\RebarCorrosion_i157_n4.png"
        string_val: "gprdata_input/amp/val\\RebarCorrosion_i160_n4.png"
        string_val: "gprdata_input/amp/val\\RebarCorrosion_i174_n4.png"
        string_val: "gprdata_input/amp/val\\RebarCorrosion_i176_n4.png"
        string_val: "gprdata_input/amp/val\\RebarCorrosion_i17_n2.png"
        string_val: "gprdata_input/amp/val\\RebarCorrosion_i181_n4.png"
        string_val: "gprdata_input/amp/val\\RebarCorrosion_i183_n1.png"
        string_val: "gprdata_input/amp/val\\RebarCorrosion_i185_n2.png"
        string_val: "gprdata_input/amp/val\\RebarCorrosion_i189_n2.png"
        string_val: "gprdata_input/amp/val\\RebarCorrosion_i195_n1.png"
        string_val: "gprdata_input/amp/val\\RebarCorrosion_i19_n4.png"
        string_val: "gprdata_input/amp/val\\RebarCorrosion_i1_n4.png"
        string_val: "gprdata_input/amp/val\\RebarCorrosion_i203_n2.png"
        string_val: "gprdata_input/amp/val\\RebarCorrosion_i218_n1.png"
        string_val: "gprdata_input/amp/val\\RebarCorrosion_i21_n3.png"
        string_val: "gprdata_input/amp/val\\RebarCorrosion_i22_n2.png"
        string_val: "gprdata_input/amp/val\\RebarCorrosion_i25_n4.png"
        string_val: "gprdata_input/amp/val\\RebarCorrosion_i28_n2.png"
        string_val: "gprdata_input/amp/val\\RebarCorrosion_i40_n2.png"
        string_val: "gprdata_input/amp/val\\RebarCorrosion_i42_n2.png"
        string_val: "gprdata_input/amp/val\\RebarCorrosion_i47_n3.png"
        string_val: "gprdata_input/amp/val\\RebarCorrosion_i49_n3.png"
        string_val: "gprdata_input/amp/val\\RebarCorrosion_i50_n4.png"
        string_val: "gprdata_input/amp/val\\RebarCorrosion_i54_n1.png"
        string_val: "gprdata_input/amp/val\\RebarCorrosion_i5_n1.png"
        string_val: "gprdata_input/amp/val\\RebarCorrosion_i67_n2.png"
        string_val: "gprdata_input/amp/val\\RebarCorrosion_i80_n3.png"
      }
    }
  }
}
node {
  name: "load_images/input_producer/Size"
  op: "Const"
  attr {
    key: "_output_shapes"
    value {
      list {
        shape {
        }
      }
    }
  }
  attr {
    key: "dtype"
    value {
      type: DT_INT32
    }
  }
  attr {
    key: "value"
    value {
      tensor {
        dtype: DT_INT32
        tensor_shape {
        }
        int_val: 40
      }
    }
  }
}
node {
  name: "load_images/input_producer/Greater/y"
  op: "Const"
  attr {
    key: "_output_shapes"
    value {
      list {
        shape {
        }
      }
    }
  }
  attr {
    key: "dtype"
    value {
      type: DT_INT32
    }
  }
  attr {
    key: "value"
    value {
      tensor {
        dtype: DT_INT32
        tensor_shape {
        }
        int_val: 0
      }
    }
  }
}
node {
  name: "load_images/input_producer/Greater"
  op: "Greater"
  input: "load_images/input_producer/Size"
  input: "load_images/input_producer/Greater/y"
  attr {
    key: "T"
    value {
      type: DT_INT32
    }
  }
  attr {
    key: "_output_shapes"
    value {
      list {
        shape {
        }
      }
    }
  }
}
node {
  name: "load_images/input_producer/Assert/Const"
  op: "Const"
  attr {
    key: "_output_shapes"
    value {
      list {
        shape {
        }
      }
    }
  }
  attr {
    key: "dtype"
    value {
      type: DT_STRING
    }
  }
  attr {
    key: "value"
    value {
      tensor {
        dtype: DT_STRING
        tensor_shape {
        }
        string_val: "string_input_producer requires a non-null input tensor"
      }
    }
  }
}
node {
  name: "load_images/input_producer/Assert/Assert/data_0"
  op: "Const"
  attr {
    key: "_output_shapes"
    value {
      list {
        shape {
        }
      }
    }
  }
  attr {
    key: "dtype"
    value {
      type: DT_STRING
    }
  }
  attr {
    key: "value"
    value {
      tensor {
        dtype: DT_STRING
        tensor_shape {
        }
        string_val: "string_input_producer requires a non-null input tensor"
      }
    }
  }
}
node {
  name: "load_images/input_producer/Assert/Assert"
  op: "Assert"
  input: "load_images/input_producer/Greater"
  input: "load_images/input_producer/Assert/Assert/data_0"
  attr {
    key: "T"
    value {
      list {
        type: DT_STRING
      }
    }
  }
  attr {
    key: "summarize"
    value {
      i: 3
    }
  }
}
node {
  name: "load_images/input_producer/Identity"
  op: "Identity"
  input: "load_images/input_producer/Const"
  input: "^load_images/input_producer/Assert/Assert"
  attr {
    key: "T"
    value {
      type: DT_STRING
    }
  }
  attr {
    key: "_output_shapes"
    value {
      list {
        shape {
          dim {
            size: 40
          }
        }
      }
    }
  }
}
node {
  name: "load_images/input_producer"
  op: "FIFOQueueV2"
  device: "/device:CPU:*"
  attr {
    key: "_output_shapes"
    value {
      list {
        shape {
        }
      }
    }
  }
  attr {
    key: "capacity"
    value {
      i: 32
    }
  }
  attr {
    key: "component_types"
    value {
      list {
        type: DT_STRING
      }
    }
  }
  attr {
    key: "container"
    value {
      s: ""
    }
  }
  attr {
    key: "shapes"
    value {
      list {
        shape {
        }
      }
    }
  }
  attr {
    key: "shared_name"
    value {
      s: ""
    }
  }
}
node {
  name: "load_images/input_producer/input_producer_EnqueueMany"
  op: "QueueEnqueueManyV2"
  input: "load_images/input_producer"
  input: "load_images/input_producer/Identity"
  attr {
    key: "Tcomponents"
    value {
      list {
        type: DT_STRING
      }
    }
  }
  attr {
    key: "timeout_ms"
    value {
      i: -1
    }
  }
}
node {
  name: "load_images/input_producer/input_producer_Close"
  op: "QueueCloseV2"
  input: "load_images/input_producer"
  attr {
    key: "cancel_pending_enqueues"
    value {
      b: false
    }
  }
}
node {
  name: "load_images/input_producer/input_producer_Close_1"
  op: "QueueCloseV2"
  input: "load_images/input_producer"
  attr {
    key: "cancel_pending_enqueues"
    value {
      b: true
    }
  }
}
node {
  name: "load_images/input_producer/input_producer_Size"
  op: "QueueSizeV2"
  input: "load_images/input_producer"
  attr {
    key: "_output_shapes"
    value {
      list {
        shape {
        }
      }
    }
  }
}
node {
  name: "load_images/input_producer/Cast"
  op: "Cast"
  input: "load_images/input_producer/input_producer_Size"
  attr {
    key: "DstT"
    value {
      type: DT_FLOAT
    }
  }
  attr {
    key: "SrcT"
    value {
      type: DT_INT32
    }
  }
  attr {
    key: "Truncate"
    value {
      b: false
    }
  }
  attr {
    key: "_output_shapes"
    value {
      list {
        shape {
        }
      }
    }
  }
}
node {
  name: "load_images/input_producer/mul/y"
  op: "Const"
  attr {
    key: "_output_shapes"
    value {
      list {
        shape {
        }
      }
    }
  }
  attr {
    key: "dtype"
    value {
      type: DT_FLOAT
    }
  }
  attr {
    key: "value"
    value {
      tensor {
        dtype: DT_FLOAT
        tensor_shape {
        }
        float_val: 0.03125
      }
    }
  }
}
node {
  name: "load_images/input_producer/mul"
  op: "Mul"
  input: "load_images/input_producer/Cast"
  input: "load_images/input_producer/mul/y"
  attr {
    key: "T"
    value {
      type: DT_FLOAT
    }
  }
  attr {
    key: "_output_shapes"
    value {
      list {
        shape {
        }
      }
    }
  }
}
node {
  name: "load_images/input_producer/fraction_of_32_full/tags"
  op: "Const"
  attr {
    key: "_output_shapes"
    value {
      list {
        shape {
        }
      }
    }
  }
  attr {
    key: "dtype"
    value {
      type: DT_STRING
    }
  }
  attr {
    key: "value"
    value {
      tensor {
        dtype: DT_STRING
        tensor_shape {
        }
        string_val: "load_images/input_producer/fraction_of_32_full"
      }
    }
  }
}
node {
  name: "load_images/input_producer/fraction_of_32_full"
  op: "ScalarSummary"
  input: "load_images/input_producer/fraction_of_32_full/tags"
  input: "load_images/input_producer/mul"
  attr {
    key: "T"
    value {
      type: DT_FLOAT
    }
  }
  attr {
    key: "_output_shapes"
    value {
      list {
        shape {
        }
      }
    }
  }
}
node {
  name: "load_images/WholeFileReaderV2"
  op: "WholeFileReaderV2"
  attr {
    key: "_output_shapes"
    value {
      list {
        shape {
        }
      }
    }
  }
  attr {
    key: "container"
    value {
      s: ""
    }
  }
  attr {
    key: "shared_name"
    value {
      s: ""
    }
  }
}
node {
  name: "load_images/ReaderReadV2"
  op: "ReaderReadV2"
  input: "load_images/WholeFileReaderV2"
  input: "load_images/input_producer"
  attr {
    key: "_output_shapes"
    value {
      list {
        shape {
        }
        shape {
        }
      }
    }
  }
}
node {
  name: "load_images/DecodePng"
  op: "DecodePng"
  input: "load_images/ReaderReadV2:1"
  attr {
    key: "_output_shapes"
    value {
      list {
        shape {
          dim {
            size: -1
          }
          dim {
            size: -1
          }
          dim {
            size: -1
          }
        }
      }
    }
  }
  attr {
    key: "channels"
    value {
      i: 0
    }
  }
  attr {
    key: "dtype"
    value {
      type: DT_UINT8
    }
  }
}
node {
  name: "load_images/convert_image/Cast"
  op: "Cast"
  input: "load_images/DecodePng"
  attr {
    key: "DstT"
    value {
      type: DT_FLOAT
    }
  }
  attr {
    key: "SrcT"
    value {
      type: DT_UINT8
    }
  }
  attr {
    key: "Truncate"
    value {
      b: false
    }
  }
  attr {
    key: "_output_shapes"
    value {
      list {
        shape {
          dim {
            size: -1
          }
          dim {
            size: -1
          }
          dim {
            size: -1
          }
        }
      }
    }
  }
}
node {
  name: "load_images/convert_image/y"
  op: "Const"
  attr {
    key: "_output_shapes"
    value {
      list {
        shape {
        }
      }
    }
  }
  attr {
    key: "dtype"
    value {
      type: DT_FLOAT
    }
  }
  attr {
    key: "value"
    value {
      tensor {
        dtype: DT_FLOAT
        tensor_shape {
        }
        float_val: 0.003921568859368563
      }
    }
  }
}
node {
  name: "load_images/convert_image"
  op: "Mul"
  input: "load_images/convert_image/Cast"
  input: "load_images/convert_image/y"
  attr {
    key: "T"
    value {
      type: DT_FLOAT
    }
  }
  attr {
    key: "_output_shapes"
    value {
      list {
        shape {
          dim {
            size: -1
          }
          dim {
            size: -1
          }
          dim {
            size: -1
          }
        }
      }
    }
  }
}
node {
  name: "load_images/Shape"
  op: "Shape"
  input: "load_images/convert_image"
  attr {
    key: "T"
    value {
      type: DT_FLOAT
    }
  }
  attr {
    key: "_output_shapes"
    value {
      list {
        shape {
          dim {
            size: 3
          }
        }
      }
    }
  }
  attr {
    key: "out_type"
    value {
      type: DT_INT32
    }
  }
}
node {
  name: "load_images/strided_slice/stack"
  op: "Const"
  attr {
    key: "_output_shapes"
    value {
      list {
        shape {
          dim {
            size: 1
          }
        }
      }
    }
  }
  attr {
    key: "dtype"
    value {
      type: DT_INT32
    }
  }
  attr {
    key: "value"
    value {
      tensor {
        dtype: DT_INT32
        tensor_shape {
          dim {
            size: 1
          }
        }
        int_val: 2
      }
    }
  }
}
node {
  name: "load_images/strided_slice/stack_1"
  op: "Const"
  attr {
    key: "_output_shapes"
    value {
      list {
        shape {
          dim {
            size: 1
          }
        }
      }
    }
  }
  attr {
    key: "dtype"
    value {
      type: DT_INT32
    }
  }
  attr {
    key: "value"
    value {
      tensor {
        dtype: DT_INT32
        tensor_shape {
          dim {
            size: 1
          }
        }
        int_val: 3
      }
    }
  }
}
node {
  name: "load_images/strided_slice/stack_2"
  op: "Const"
  attr {
    key: "_output_shapes"
    value {
      list {
        shape {
          dim {
            size: 1
          }
        }
      }
    }
  }
  attr {
    key: "dtype"
    value {
      type: DT_INT32
    }
  }
  attr {
    key: "value"
    value {
      tensor {
        dtype: DT_INT32
        tensor_shape {
          dim {
            size: 1
          }
        }
        int_val: 1
      }
    }
  }
}
node {
  name: "load_images/strided_slice"
  op: "StridedSlice"
  input: "load_images/Shape"
  input: "load_images/strided_slice/stack"
  input: "load_images/strided_slice/stack_1"
  input: "load_images/strided_slice/stack_2"
  attr {
    key: "Index"
    value {
      type: DT_INT32
    }
  }
  attr {
    key: "T"
    value {
      type: DT_INT32
    }
  }
  attr {
    key: "_output_shapes"
    value {
      list {
        shape {
        }
      }
    }
  }
  attr {
    key: "begin_mask"
    value {
      i: 0
    }
  }
  attr {
    key: "ellipsis_mask"
    value {
      i: 0
    }
  }
  attr {
    key: "end_mask"
    value {
      i: 0
    }
  }
  attr {
    key: "new_axis_mask"
    value {
      i: 0
    }
  }
  attr {
    key: "shrink_axis_mask"
    value {
      i: 1
    }
  }
}
node {
  name: "load_images/assert_equal_1/y"
  op: "Const"
  attr {
    key: "_output_shapes"
    value {
      list {
        shape {
        }
      }
    }
  }
  attr {
    key: "dtype"
    value {
      type: DT_INT32
    }
  }
  attr {
    key: "value"
    value {
      tensor {
        dtype: DT_INT32
        tensor_shape {
        }
        int_val: 3
      }
    }
  }
}
node {
  name: "load_images/assert_equal_1/Equal"
  op: "Equal"
  input: "load_images/strided_slice"
  input: "load_images/assert_equal_1/y"
  attr {
    key: "T"
    value {
      type: DT_INT32
    }
  }
  attr {
    key: "_output_shapes"
    value {
      list {
        shape {
        }
      }
    }
  }
  attr {
    key: "incompatible_shape_error"
    value {
      b: true
    }
  }
}
node {
  name: "load_images/assert_equal_1/Rank"
  op: "Const"
  attr {
    key: "_output_shapes"
    value {
      list {
        shape {
        }
      }
    }
  }
  attr {
    key: "dtype"
    value {
      type: DT_INT32
    }
  }
  attr {
    key: "value"
    value {
      tensor {
        dtype: DT_INT32
        tensor_shape {
        }
        int_val: 0
      }
    }
  }
}
node {
  name: "load_images/assert_equal_1/range/start"
  op: "Const"
  attr {
    key: "_output_shapes"
    value {
      list {
        shape {
        }
      }
    }
  }
  attr {
    key: "dtype"
    value {
      type: DT_INT32
    }
  }
  attr {
    key: "value"
    value {
      tensor {
        dtype: DT_INT32
        tensor_shape {
        }
        int_val: 0
      }
    }
  }
}
node {
  name: "load_images/assert_equal_1/range/delta"
  op: "Const"
  attr {
    key: "_output_shapes"
    value {
      list {
        shape {
        }
      }
    }
  }
  attr {
    key: "dtype"
    value {
      type: DT_INT32
    }
  }
  attr {
    key: "value"
    value {
      tensor {
        dtype: DT_INT32
        tensor_shape {
        }
        int_val: 1
      }
    }
  }
}
node {
  name: "load_images/assert_equal_1/range"
  op: "Range"
  input: "load_images/assert_equal_1/range/start"
  input: "load_images/assert_equal_1/Rank"
  input: "load_images/assert_equal_1/range/delta"
  attr {
    key: "Tidx"
    value {
      type: DT_INT32
    }
  }
  attr {
    key: "_output_shapes"
    value {
      list {
        shape {
          dim {
          }
        }
      }
    }
  }
}
node {
  name: "load_images/assert_equal_1/All"
  op: "All"
  input: "load_images/assert_equal_1/Equal"
  input: "load_images/assert_equal_1/range"
  attr {
    key: "Tidx"
    value {
      type: DT_INT32
    }
  }
  attr {
    key: "_output_shapes"
    value {
      list {
        shape {
        }
      }
    }
  }
  attr {
    key: "keep_dims"
    value {
      b: false
    }
  }
}
node {
  name: "load_images/assert_equal_1/Assert/Const"
  op: "Const"
  attr {
    key: "_output_shapes"
    value {
      list {
        shape {
        }
      }
    }
  }
  attr {
    key: "dtype"
    value {
      type: DT_STRING
    }
  }
  attr {
    key: "value"
    value {
      tensor {
        dtype: DT_STRING
        tensor_shape {
        }
        string_val: "image does not have 3 channels"
      }
    }
  }
}
node {
  name: "load_images/assert_equal_1/Assert/Const_1"
  op: "Const"
  attr {
    key: "_output_shapes"
    value {
      list {
        shape {
        }
      }
    }
  }
  attr {
    key: "dtype"
    value {
      type: DT_STRING
    }
  }
  attr {
    key: "value"
    value {
      tensor {
        dtype: DT_STRING
        tensor_shape {
        }
        string_val: "Condition x == y did not hold element-wise:"
      }
    }
  }
}
node {
  name: "load_images/assert_equal_1/Assert/Const_2"
  op: "Const"
  attr {
    key: "_output_shapes"
    value {
      list {
        shape {
        }
      }
    }
  }
  attr {
    key: "dtype"
    value {
      type: DT_STRING
    }
  }
  attr {
    key: "value"
    value {
      tensor {
        dtype: DT_STRING
        tensor_shape {
        }
        string_val: "x (load_images/strided_slice:0) = "
      }
    }
  }
}
node {
  name: "load_images/assert_equal_1/Assert/Const_3"
  op: "Const"
  attr {
    key: "_output_shapes"
    value {
      list {
        shape {
        }
      }
    }
  }
  attr {
    key: "dtype"
    value {
      type: DT_STRING
    }
  }
  attr {
    key: "value"
    value {
      tensor {
        dtype: DT_STRING
        tensor_shape {
        }
        string_val: "y (load_images/assert_equal_1/y:0) = "
      }
    }
  }
}
node {
  name: "load_images/assert_equal_1/Assert/Assert/data_0"
  op: "Const"
  attr {
    key: "_output_shapes"
    value {
      list {
        shape {
        }
      }
    }
  }
  attr {
    key: "dtype"
    value {
      type: DT_STRING
    }
  }
  attr {
    key: "value"
    value {
      tensor {
        dtype: DT_STRING
        tensor_shape {
        }
        string_val: "image does not have 3 channels"
      }
    }
  }
}
node {
  name: "load_images/assert_equal_1/Assert/Assert/data_1"
  op: "Const"
  attr {
    key: "_output_shapes"
    value {
      list {
        shape {
        }
      }
    }
  }
  attr {
    key: "dtype"
    value {
      type: DT_STRING
    }
  }
  attr {
    key: "value"
    value {
      tensor {
        dtype: DT_STRING
        tensor_shape {
        }
        string_val: "Condition x == y did not hold element-wise:"
      }
    }
  }
}
node {
  name: "load_images/assert_equal_1/Assert/Assert/data_2"
  op: "Const"
  attr {
    key: "_output_shapes"
    value {
      list {
        shape {
        }
      }
    }
  }
  attr {
    key: "dtype"
    value {
      type: DT_STRING
    }
  }
  attr {
    key: "value"
    value {
      tensor {
        dtype: DT_STRING
        tensor_shape {
        }
        string_val: "x (load_images/strided_slice:0) = "
      }
    }
  }
}
node {
  name: "load_images/assert_equal_1/Assert/Assert/data_4"
  op: "Const"
  attr {
    key: "_output_shapes"
    value {
      list {
        shape {
        }
      }
    }
  }
  attr {
    key: "dtype"
    value {
      type: DT_STRING
    }
  }
  attr {
    key: "value"
    value {
      tensor {
        dtype: DT_STRING
        tensor_shape {
        }
        string_val: "y (load_images/assert_equal_1/y:0) = "
      }
    }
  }
}
node {
  name: "load_images/assert_equal_1/Assert/Assert"
  op: "Assert"
  input: "load_images/assert_equal_1/All"
  input: "load_images/assert_equal_1/Assert/Assert/data_0"
  input: "load_images/assert_equal_1/Assert/Assert/data_1"
  input: "load_images/assert_equal_1/Assert/Assert/data_2"
  input: "load_images/strided_slice"
  input: "load_images/assert_equal_1/Assert/Assert/data_4"
  input: "load_images/assert_equal_1/y"
  attr {
    key: "T"
    value {
      list {
        type: DT_STRING
        type: DT_STRING
        type: DT_STRING
        type: DT_INT32
        type: DT_STRING
        type: DT_INT32
      }
    }
  }
  attr {
    key: "summarize"
    value {
      i: 3
    }
  }
}
node {
  name: "load_images/Identity"
  op: "Identity"
  input: "load_images/convert_image"
  input: "^load_images/assert_equal_1/Assert/Assert"
  attr {
    key: "T"
    value {
      type: DT_FLOAT
    }
  }
  attr {
    key: "_output_shapes"
    value {
      list {
        shape {
          dim {
            size: -1
          }
          dim {
            size: -1
          }
          dim {
            size: 3
          }
        }
      }
    }
  }
}
node {
  name: "load_images/Shape_1"
  op: "Shape"
  input: "load_images/Identity"
  attr {
    key: "T"
    value {
      type: DT_FLOAT
    }
  }
  attr {
    key: "_output_shapes"
    value {
      list {
        shape {
          dim {
            size: 3
          }
        }
      }
    }
  }
  attr {
    key: "out_type"
    value {
      type: DT_INT32
    }
  }
}
node {
  name: "load_images/strided_slice_1/stack"
  op: "Const"
  attr {
    key: "_output_shapes"
    value {
      list {
        shape {
          dim {
            size: 1
          }
        }
      }
    }
  }
  attr {
    key: "dtype"
    value {
      type: DT_INT32
    }
  }
  attr {
    key: "value"
    value {
      tensor {
        dtype: DT_INT32
        tensor_shape {
          dim {
            size: 1
          }
        }
        int_val: 1
      }
    }
  }
}
node {
  name: "load_images/strided_slice_1/stack_1"
  op: "Const"
  attr {
    key: "_output_shapes"
    value {
      list {
        shape {
          dim {
            size: 1
          }
        }
      }
    }
  }
  attr {
    key: "dtype"
    value {
      type: DT_INT32
    }
  }
  attr {
    key: "value"
    value {
      tensor {
        dtype: DT_INT32
        tensor_shape {
          dim {
            size: 1
          }
        }
        int_val: 2
      }
    }
  }
}
node {
  name: "load_images/strided_slice_1/stack_2"
  op: "Const"
  attr {
    key: "_output_shapes"
    value {
      list {
        shape {
          dim {
            size: 1
          }
        }
      }
    }
  }
  attr {
    key: "dtype"
    value {
      type: DT_INT32
    }
  }
  attr {
    key: "value"
    value {
      tensor {
        dtype: DT_INT32
        tensor_shape {
          dim {
            size: 1
          }
        }
        int_val: 1
      }
    }
  }
}
node {
  name: "load_images/strided_slice_1"
  op: "StridedSlice"
  input: "load_images/Shape_1"
  input: "load_images/strided_slice_1/stack"
  input: "load_images/strided_slice_1/stack_1"
  input: "load_images/strided_slice_1/stack_2"
  attr {
    key: "Index"
    value {
      type: DT_INT32
    }
  }
  attr {
    key: "T"
    value {
      type: DT_INT32
    }
  }
  attr {
    key: "_output_shapes"
    value {
      list {
        shape {
        }
      }
    }
  }
  attr {
    key: "begin_mask"
    value {
      i: 0
    }
  }
  attr {
    key: "ellipsis_mask"
    value {
      i: 0
    }
  }
  attr {
    key: "end_mask"
    value {
      i: 0
    }
  }
  attr {
    key: "new_axis_mask"
    value {
      i: 0
    }
  }
  attr {
    key: "shrink_axis_mask"
    value {
      i: 1
    }
  }
}
node {
  name: "load_images/floordiv/y"
  op: "Const"
  attr {
    key: "_output_shapes"
    value {
      list {
        shape {
        }
      }
    }
  }
  attr {
    key: "dtype"
    value {
      type: DT_INT32
    }
  }
  attr {
    key: "value"
    value {
      tensor {
        dtype: DT_INT32
        tensor_shape {
        }
        int_val: 2
      }
    }
  }
}
node {
  name: "load_images/floordiv"
  op: "FloorDiv"
  input: "load_images/strided_slice_1"
  input: "load_images/floordiv/y"
  attr {
    key: "T"
    value {
      type: DT_INT32
    }
  }
  attr {
    key: "_output_shapes"
    value {
      list {
        shape {
        }
      }
    }
  }
}
node {
  name: "load_images/Const"
  op: "Const"
  attr {
    key: "_output_shapes"
    value {
      list {
        shape {
        }
      }
    }
  }
  attr {
    key: "dtype"
    value {
      type: DT_INT32
    }
  }
  attr {
    key: "value"
    value {
      tensor {
        dtype: DT_INT32
        tensor_shape {
        }
        int_val: 0
      }
    }
  }
}
node {
  name: "load_images/Const_1"
  op: "Const"
  attr {
    key: "_output_shapes"
    value {
      list {
        shape {
        }
      }
    }
  }
  attr {
    key: "dtype"
    value {
      type: DT_INT32
    }
  }
  attr {
    key: "value"
    value {
      tensor {
        dtype: DT_INT32
        tensor_shape {
        }
        int_val: 1
      }
    }
  }
}
node {
  name: "load_images/strided_slice_2/stack/0"
  op: "Const"
  attr {
    key: "_output_shapes"
    value {
      list {
        shape {
        }
      }
    }
  }
  attr {
    key: "dtype"
    value {
      type: DT_INT32
    }
  }
  attr {
    key: "value"
    value {
      tensor {
        dtype: DT_INT32
        tensor_shape {
        }
        int_val: 0
      }
    }
  }
}
node {
  name: "load_images/strided_slice_2/stack/2"
  op: "Const"
  attr {
    key: "_output_shapes"
    value {
      list {
        shape {
        }
      }
    }
  }
  attr {
    key: "dtype"
    value {
      type: DT_INT32
    }
  }
  attr {
    key: "value"
    value {
      tensor {
        dtype: DT_INT32
        tensor_shape {
        }
        int_val: 0
      }
    }
  }
}
node {
  name: "load_images/strided_slice_2/stack"
  op: "Pack"
  input: "load_images/strided_slice_2/stack/0"
  input: "load_images/Const"
  input: "load_images/strided_slice_2/stack/2"
  attr {
    key: "N"
    value {
      i: 3
    }
  }
  attr {
    key: "T"
    value {
      type: DT_INT32
    }
  }
  attr {
    key: "_output_shapes"
    value {
      list {
        shape {
          dim {
            size: 3
          }
        }
      }
    }
  }
  attr {
    key: "axis"
    value {
      i: 0
    }
  }
}
node {
  name: "load_images/strided_slice_2/stack_1/0"
  op: "Const"
  attr {
    key: "_output_shapes"
    value {
      list {
        shape {
        }
      }
    }
  }
  attr {
    key: "dtype"
    value {
      type: DT_INT32
    }
  }
  attr {
    key: "value"
    value {
      tensor {
        dtype: DT_INT32
        tensor_shape {
        }
        int_val: 0
      }
    }
  }
}
node {
  name: "load_images/strided_slice_2/stack_1/2"
  op: "Const"
  attr {
    key: "_output_shapes"
    value {
      list {
        shape {
        }
      }
    }
  }
  attr {
    key: "dtype"
    value {
      type: DT_INT32
    }
  }
  attr {
    key: "value"
    value {
      tensor {
        dtype: DT_INT32
        tensor_shape {
        }
        int_val: 0
      }
    }
  }
}
node {
  name: "load_images/strided_slice_2/stack_1"
  op: "Pack"
  input: "load_images/strided_slice_2/stack_1/0"
  input: "load_images/floordiv"
  input: "load_images/strided_slice_2/stack_1/2"
  attr {
    key: "N"
    value {
      i: 3
    }
  }
  attr {
    key: "T"
    value {
      type: DT_INT32
    }
  }
  attr {
    key: "_output_shapes"
    value {
      list {
        shape {
          dim {
            size: 3
          }
        }
      }
    }
  }
  attr {
    key: "axis"
    value {
      i: 0
    }
  }
}
node {
  name: "load_images/strided_slice_2/stack_2/0"
  op: "Const"
  attr {
    key: "_output_shapes"
    value {
      list {
        shape {
        }
      }
    }
  }
  attr {
    key: "dtype"
    value {
      type: DT_INT32
    }
  }
  attr {
    key: "value"
    value {
      tensor {
        dtype: DT_INT32
        tensor_shape {
        }
        int_val: 1
      }
    }
  }
}
node {
  name: "load_images/strided_slice_2/stack_2/2"
  op: "Const"
  attr {
    key: "_output_shapes"
    value {
      list {
        shape {
        }
      }
    }
  }
  attr {
    key: "dtype"
    value {
      type: DT_INT32
    }
  }
  attr {
    key: "value"
    value {
      tensor {
        dtype: DT_INT32
        tensor_shape {
        }
        int_val: 1
      }
    }
  }
}
node {
  name: "load_images/strided_slice_2/stack_2"
  op: "Pack"
  input: "load_images/strided_slice_2/stack_2/0"
  input: "load_images/Const_1"
  input: "load_images/strided_slice_2/stack_2/2"
  attr {
    key: "N"
    value {
      i: 3
    }
  }
  attr {
    key: "T"
    value {
      type: DT_INT32
    }
  }
  attr {
    key: "_output_shapes"
    value {
      list {
        shape {
          dim {
            size: 3
          }
        }
      }
    }
  }
  attr {
    key: "axis"
    value {
      i: 0
    }
  }
}
node {
  name: "load_images/strided_slice_2"
  op: "StridedSlice"
  input: "load_images/Identity"
  input: "load_images/strided_slice_2/stack"
  input: "load_images/strided_slice_2/stack_1"
  input: "load_images/strided_slice_2/stack_2"
  attr {
    key: "Index"
    value {
      type: DT_INT32
    }
  }
  attr {
    key: "T"
    value {
      type: DT_FLOAT
    }
  }
  attr {
    key: "_output_shapes"
    value {
      list {
        shape {
          dim {
            size: -1
          }
          dim {
            size: -1
          }
          dim {
            size: 3
          }
        }
      }
    }
  }
  attr {
    key: "begin_mask"
    value {
      i: 7
    }
  }
  attr {
    key: "ellipsis_mask"
    value {
      i: 0
    }
  }
  attr {
    key: "end_mask"
    value {
      i: 5
    }
  }
  attr {
    key: "new_axis_mask"
    value {
      i: 0
    }
  }
  attr {
    key: "shrink_axis_mask"
    value {
      i: 0
    }
  }
}
node {
  name: "load_images/preprocess/mul/y"
  op: "Const"
  attr {
    key: "_output_shapes"
    value {
      list {
        shape {
        }
      }
    }
  }
  attr {
    key: "dtype"
    value {
      type: DT_FLOAT
    }
  }
  attr {
    key: "value"
    value {
      tensor {
        dtype: DT_FLOAT
        tensor_shape {
        }
        float_val: 2.0
      }
    }
  }
}
node {
  name: "load_images/preprocess/mul"
  op: "Mul"
  input: "load_images/strided_slice_2"
  input: "load_images/preprocess/mul/y"
  attr {
    key: "T"
    value {
      type: DT_FLOAT
    }
  }
  attr {
    key: "_output_shapes"
    value {
      list {
        shape {
          dim {
            size: -1
          }
          dim {
            size: -1
          }
          dim {
            size: 3
          }
        }
      }
    }
  }
}
node {
  name: "load_images/preprocess/sub/y"
  op: "Const"
  attr {
    key: "_output_shapes"
    value {
      list {
        shape {
        }
      }
    }
  }
  attr {
    key: "dtype"
    value {
      type: DT_FLOAT
    }
  }
  attr {
    key: "value"
    value {
      tensor {
        dtype: DT_FLOAT
        tensor_shape {
        }
        float_val: 1.0
      }
    }
  }
}
node {
  name: "load_images/preprocess/sub"
  op: "Sub"
  input: "load_images/preprocess/mul"
  input: "load_images/preprocess/sub/y"
  attr {
    key: "T"
    value {
      type: DT_FLOAT
    }
  }
  attr {
    key: "_output_shapes"
    value {
      list {
        shape {
          dim {
            size: -1
          }
          dim {
            size: -1
          }
          dim {
            size: 3
          }
        }
      }
    }
  }
}
node {
  name: "load_images/floordiv_1/y"
  op: "Const"
  attr {
    key: "_output_shapes"
    value {
      list {
        shape {
        }
      }
    }
  }
  attr {
    key: "dtype"
    value {
      type: DT_INT32
    }
  }
  attr {
    key: "value"
    value {
      tensor {
        dtype: DT_INT32
        tensor_shape {
        }
        int_val: 2
      }
    }
  }
}
node {
  name: "load_images/floordiv_1"
  op: "FloorDiv"
  input: "load_images/strided_slice_1"
  input: "load_images/floordiv_1/y"
  attr {
    key: "T"
    value {
      type: DT_INT32
    }
  }
  attr {
    key: "_output_shapes"
    value {
      list {
        shape {
        }
      }
    }
  }
}
node {
  name: "load_images/Const_2"
  op: "Const"
  attr {
    key: "_output_shapes"
    value {
      list {
        shape {
        }
      }
    }
  }
  attr {
    key: "dtype"
    value {
      type: DT_INT32
    }
  }
  attr {
    key: "value"
    value {
      tensor {
        dtype: DT_INT32
        tensor_shape {
        }
        int_val: 0
      }
    }
  }
}
node {
  name: "load_images/Const_3"
  op: "Const"
  attr {
    key: "_output_shapes"
    value {
      list {
        shape {
        }
      }
    }
  }
  attr {
    key: "dtype"
    value {
      type: DT_INT32
    }
  }
  attr {
    key: "value"
    value {
      tensor {
        dtype: DT_INT32
        tensor_shape {
        }
        int_val: 1
      }
    }
  }
}
node {
  name: "load_images/strided_slice_3/stack/0"
  op: "Const"
  attr {
    key: "_output_shapes"
    value {
      list {
        shape {
        }
      }
    }
  }
  attr {
    key: "dtype"
    value {
      type: DT_INT32
    }
  }
  attr {
    key: "value"
    value {
      tensor {
        dtype: DT_INT32
        tensor_shape {
        }
        int_val: 0
      }
    }
  }
}
node {
  name: "load_images/strided_slice_3/stack/2"
  op: "Const"
  attr {
    key: "_output_shapes"
    value {
      list {
        shape {
        }
      }
    }
  }
  attr {
    key: "dtype"
    value {
      type: DT_INT32
    }
  }
  attr {
    key: "value"
    value {
      tensor {
        dtype: DT_INT32
        tensor_shape {
        }
        int_val: 0
      }
    }
  }
}
node {
  name: "load_images/strided_slice_3/stack"
  op: "Pack"
  input: "load_images/strided_slice_3/stack/0"
  input: "load_images/floordiv_1"
  input: "load_images/strided_slice_3/stack/2"
  attr {
    key: "N"
    value {
      i: 3
    }
  }
  attr {
    key: "T"
    value {
      type: DT_INT32
    }
  }
  attr {
    key: "_output_shapes"
    value {
      list {
        shape {
          dim {
            size: 3
          }
        }
      }
    }
  }
  attr {
    key: "axis"
    value {
      i: 0
    }
  }
}
node {
  name: "load_images/strided_slice_3/stack_1/0"
  op: "Const"
  attr {
    key: "_output_shapes"
    value {
      list {
        shape {
        }
      }
    }
  }
  attr {
    key: "dtype"
    value {
      type: DT_INT32
    }
  }
  attr {
    key: "value"
    value {
      tensor {
        dtype: DT_INT32
        tensor_shape {
        }
        int_val: 0
      }
    }
  }
}
node {
  name: "load_images/strided_slice_3/stack_1/2"
  op: "Const"
  attr {
    key: "_output_shapes"
    value {
      list {
        shape {
        }
      }
    }
  }
  attr {
    key: "dtype"
    value {
      type: DT_INT32
    }
  }
  attr {
    key: "value"
    value {
      tensor {
        dtype: DT_INT32
        tensor_shape {
        }
        int_val: 0
      }
    }
  }
}
node {
  name: "load_images/strided_slice_3/stack_1"
  op: "Pack"
  input: "load_images/strided_slice_3/stack_1/0"
  input: "load_images/Const_2"
  input: "load_images/strided_slice_3/stack_1/2"
  attr {
    key: "N"
    value {
      i: 3
    }
  }
  attr {
    key: "T"
    value {
      type: DT_INT32
    }
  }
  attr {
    key: "_output_shapes"
    value {
      list {
        shape {
          dim {
            size: 3
          }
        }
      }
    }
  }
  attr {
    key: "axis"
    value {
      i: 0
    }
  }
}
node {
  name: "load_images/strided_slice_3/stack_2/0"
  op: "Const"
  attr {
    key: "_output_shapes"
    value {
      list {
        shape {
        }
      }
    }
  }
  attr {
    key: "dtype"
    value {
      type: DT_INT32
    }
  }
  attr {
    key: "value"
    value {
      tensor {
        dtype: DT_INT32
        tensor_shape {
        }
        int_val: 1
      }
    }
  }
}
node {
  name: "load_images/strided_slice_3/stack_2/2"
  op: "Const"
  attr {
    key: "_output_shapes"
    value {
      list {
        shape {
        }
      }
    }
  }
  attr {
    key: "dtype"
    value {
      type: DT_INT32
    }
  }
  attr {
    key: "value"
    value {
      tensor {
        dtype: DT_INT32
        tensor_shape {
        }
        int_val: 1
      }
    }
  }
}
node {
  name: "load_images/strided_slice_3/stack_2"
  op: "Pack"
  input: "load_images/strided_slice_3/stack_2/0"
  input: "load_images/Const_3"
  input: "load_images/strided_slice_3/stack_2/2"
  attr {
    key: "N"
    value {
      i: 3
    }
  }
  attr {
    key: "T"
    value {
      type: DT_INT32
    }
  }
  attr {
    key: "_output_shapes"
    value {
      list {
        shape {
          dim {
            size: 3
          }
        }
      }
    }
  }
  attr {
    key: "axis"
    value {
      i: 0
    }
  }
}
node {
  name: "load_images/strided_slice_3"
  op: "StridedSlice"
  input: "load_images/Identity"
  input: "load_images/strided_slice_3/stack"
  input: "load_images/strided_slice_3/stack_1"
  input: "load_images/strided_slice_3/stack_2"
  attr {
    key: "Index"
    value {
      type: DT_INT32
    }
  }
  attr {
    key: "T"
    value {
      type: DT_FLOAT
    }
  }
  attr {
    key: "_output_shapes"
    value {
      list {
        shape {
          dim {
            size: -1
          }
          dim {
            size: -1
          }
          dim {
            size: 3
          }
        }
      }
    }
  }
  attr {
    key: "begin_mask"
    value {
      i: 5
    }
  }
  attr {
    key: "ellipsis_mask"
    value {
      i: 0
    }
  }
  attr {
    key: "end_mask"
    value {
      i: 7
    }
  }
  attr {
    key: "new_axis_mask"
    value {
      i: 0
    }
  }
  attr {
    key: "shrink_axis_mask"
    value {
      i: 0
    }
  }
}
node {
  name: "load_images/preprocess_1/mul/y"
  op: "Const"
  attr {
    key: "_output_shapes"
    value {
      list {
        shape {
        }
      }
    }
  }
  attr {
    key: "dtype"
    value {
      type: DT_FLOAT
    }
  }
  attr {
    key: "value"
    value {
      tensor {
        dtype: DT_FLOAT
        tensor_shape {
        }
        float_val: 2.0
      }
    }
  }
}
node {
  name: "load_images/preprocess_1/mul"
  op: "Mul"
  input: "load_images/strided_slice_3"
  input: "load_images/preprocess_1/mul/y"
  attr {
    key: "T"
    value {
      type: DT_FLOAT
    }
  }
  attr {
    key: "_output_shapes"
    value {
      list {
        shape {
          dim {
            size: -1
          }
          dim {
            size: -1
          }
          dim {
            size: 3
          }
        }
      }
    }
  }
}
node {
  name: "load_images/preprocess_1/sub/y"
  op: "Const"
  attr {
    key: "_output_shapes"
    value {
      list {
        shape {
        }
      }
    }
  }
  attr {
    key: "dtype"
    value {
      type: DT_FLOAT
    }
  }
  attr {
    key: "value"
    value {
      tensor {
        dtype: DT_FLOAT
        tensor_shape {
        }
        float_val: 1.0
      }
    }
  }
}
node {
  name: "load_images/preprocess_1/sub"
  op: "Sub"
  input: "load_images/preprocess_1/mul"
  input: "load_images/preprocess_1/sub/y"
  attr {
    key: "T"
    value {
      type: DT_FLOAT
    }
  }
  attr {
    key: "_output_shapes"
    value {
      list {
        shape {
          dim {
            size: -1
          }
          dim {
            size: -1
          }
          dim {
            size: 3
          }
        }
      }
    }
  }
}
node {
  name: "input_images/resize/ExpandDims/dim"
  op: "Const"
  attr {
    key: "_output_shapes"
    value {
      list {
        shape {
        }
      }
    }
  }
  attr {
    key: "dtype"
    value {
      type: DT_INT32
    }
  }
  attr {
    key: "value"
    value {
      tensor {
        dtype: DT_INT32
        tensor_shape {
        }
        int_val: 0
      }
    }
  }
}
node {
  name: "input_images/resize/ExpandDims"
  op: "ExpandDims"
  input: "load_images/preprocess/sub"
  input: "input_images/resize/ExpandDims/dim"
  attr {
    key: "T"
    value {
      type: DT_FLOAT
    }
  }
  attr {
    key: "Tdim"
    value {
      type: DT_INT32
    }
  }
  attr {
    key: "_output_shapes"
    value {
      list {
        shape {
          dim {
            size: 1
          }
          dim {
            size: -1
          }
          dim {
            size: -1
          }
          dim {
            size: 3
          }
        }
      }
    }
  }
}
node {
  name: "input_images/resize/size"
  op: "Const"
  attr {
    key: "_output_shapes"
    value {
      list {
        shape {
          dim {
            size: 2
          }
        }
      }
    }
  }
  attr {
    key: "dtype"
    value {
      type: DT_INT32
    }
  }
  attr {
    key: "value"
    value {
      tensor {
        dtype: DT_INT32
        tensor_shape {
          dim {
            size: 2
          }
        }
        tensor_content: "\000\001\000\000\000\001\000\000"
      }
    }
  }
}
node {
  name: "input_images/resize/ResizeArea"
  op: "ResizeArea"
  input: "input_images/resize/ExpandDims"
  input: "input_images/resize/size"
  attr {
    key: "T"
    value {
      type: DT_FLOAT
    }
  }
  attr {
    key: "_output_shapes"
    value {
      list {
        shape {
          dim {
            size: 1
          }
          dim {
            size: 256
          }
          dim {
            size: 256
          }
          dim {
            size: 3
          }
        }
      }
    }
  }
  attr {
    key: "align_corners"
    value {
      b: false
    }
  }
}
node {
  name: "input_images/resize/Squeeze"
  op: "Squeeze"
  input: "input_images/resize/ResizeArea"
  attr {
    key: "T"
    value {
      type: DT_FLOAT
    }
  }
  attr {
    key: "_output_shapes"
    value {
      list {
        shape {
          dim {
            size: 256
          }
          dim {
            size: 256
          }
          dim {
            size: 3
          }
        }
      }
    }
  }
  attr {
    key: "squeeze_dims"
    value {
      list {
        i: 0
      }
    }
  }
}
node {
  name: "input_images/random_uniform/shape"
  op: "Const"
  attr {
    key: "_output_shapes"
    value {
      list {
        shape {
          dim {
            size: 1
          }
        }
      }
    }
  }
  attr {
    key: "dtype"
    value {
      type: DT_INT32
    }
  }
  attr {
    key: "value"
    value {
      tensor {
        dtype: DT_INT32
        tensor_shape {
          dim {
            size: 1
          }
        }
        int_val: 2
      }
    }
  }
}
node {
  name: "input_images/random_uniform/RandomUniform"
  op: "RandomUniform"
  input: "input_images/random_uniform/shape"
  attr {
    key: "T"
    value {
      type: DT_INT32
    }
  }
  attr {
    key: "_output_shapes"
    value {
      list {
        shape {
          dim {
            size: 2
          }
        }
      }
    }
  }
  attr {
    key: "dtype"
    value {
      type: DT_FLOAT
    }
  }
  attr {
    key: "seed"
    value {
      i: 2122079
    }
  }
  attr {
    key: "seed2"
    value {
      i: 881541115
    }
  }
}
node {
  name: "input_images/Floor"
  op: "Floor"
  input: "input_images/random_uniform/RandomUniform"
  attr {
    key: "T"
    value {
      type: DT_FLOAT
    }
  }
  attr {
    key: "_output_shapes"
    value {
      list {
        shape {
          dim {
            size: 2
          }
        }
      }
    }
  }
}
node {
  name: "input_images/Cast"
  op: "Cast"
  input: "input_images/Floor"
  attr {
    key: "DstT"
    value {
      type: DT_INT32
    }
  }
  attr {
    key: "SrcT"
    value {
      type: DT_FLOAT
    }
  }
  attr {
    key: "Truncate"
    value {
      b: false
    }
  }
  attr {
    key: "_output_shapes"
    value {
      list {
        shape {
          dim {
            size: 2
          }
        }
      }
    }
  }
}
node {
  name: "target_images/resize/ExpandDims/dim"
  op: "Const"
  attr {
    key: "_output_shapes"
    value {
      list {
        shape {
        }
      }
    }
  }
  attr {
    key: "dtype"
    value {
      type: DT_INT32
    }
  }
  attr {
    key: "value"
    value {
      tensor {
        dtype: DT_INT32
        tensor_shape {
        }
        int_val: 0
      }
    }
  }
}
node {
  name: "target_images/resize/ExpandDims"
  op: "ExpandDims"
  input: "load_images/preprocess_1/sub"
  input: "target_images/resize/ExpandDims/dim"
  attr {
    key: "T"
    value {
      type: DT_FLOAT
    }
  }
  attr {
    key: "Tdim"
    value {
      type: DT_INT32
    }
  }
  attr {
    key: "_output_shapes"
    value {
      list {
        shape {
          dim {
            size: 1
          }
          dim {
            size: -1
          }
          dim {
            size: -1
          }
          dim {
            size: 3
          }
        }
      }
    }
  }
}
node {
  name: "target_images/resize/size"
  op: "Const"
  attr {
    key: "_output_shapes"
    value {
      list {
        shape {
          dim {
            size: 2
          }
        }
      }
    }
  }
  attr {
    key: "dtype"
    value {
      type: DT_INT32
    }
  }
  attr {
    key: "value"
    value {
      tensor {
        dtype: DT_INT32
        tensor_shape {
          dim {
            size: 2
          }
        }
        tensor_content: "\000\001\000\000\000\001\000\000"
      }
    }
  }
}
node {
  name: "target_images/resize/ResizeArea"
  op: "ResizeArea"
  input: "target_images/resize/ExpandDims"
  input: "target_images/resize/size"
  attr {
    key: "T"
    value {
      type: DT_FLOAT
    }
  }
  attr {
    key: "_output_shapes"
    value {
      list {
        shape {
          dim {
            size: 1
          }
          dim {
            size: 256
          }
          dim {
            size: 256
          }
          dim {
            size: 3
          }
        }
      }
    }
  }
  attr {
    key: "align_corners"
    value {
      b: false
    }
  }
}
node {
  name: "target_images/resize/Squeeze"
  op: "Squeeze"
  input: "target_images/resize/ResizeArea"
  attr {
    key: "T"
    value {
      type: DT_FLOAT
    }
  }
  attr {
    key: "_output_shapes"
    value {
      list {
        shape {
          dim {
            size: 256
          }
          dim {
            size: 256
          }
          dim {
            size: 3
          }
        }
      }
    }
  }
  attr {
    key: "squeeze_dims"
    value {
      list {
        i: 0
      }
    }
  }
}
node {
  name: "target_images/random_uniform/shape"
  op: "Const"
  attr {
    key: "_output_shapes"
    value {
      list {
        shape {
          dim {
            size: 1
          }
        }
      }
    }
  }
  attr {
    key: "dtype"
    value {
      type: DT_INT32
    }
  }
  attr {
    key: "value"
    value {
      tensor {
        dtype: DT_INT32
        tensor_shape {
          dim {
            size: 1
          }
        }
        int_val: 2
      }
    }
  }
}
node {
  name: "target_images/random_uniform/RandomUniform"
  op: "RandomUniform"
  input: "target_images/random_uniform/shape"
  attr {
    key: "T"
    value {
      type: DT_INT32
    }
  }
  attr {
    key: "_output_shapes"
    value {
      list {
        shape {
          dim {
            size: 2
          }
        }
      }
    }
  }
  attr {
    key: "dtype"
    value {
      type: DT_FLOAT
    }
  }
  attr {
    key: "seed"
    value {
      i: 2122079
    }
  }
  attr {
    key: "seed2"
    value {
      i: 881541115
    }
  }
}
node {
  name: "target_images/Floor"
  op: "Floor"
  input: "target_images/random_uniform/RandomUniform"
  attr {
    key: "T"
    value {
      type: DT_FLOAT
    }
  }
  attr {
    key: "_output_shapes"
    value {
      list {
        shape {
          dim {
            size: 2
          }
        }
      }
    }
  }
}
node {
  name: "target_images/Cast"
  op: "Cast"
  input: "target_images/Floor"
  attr {
    key: "DstT"
    value {
      type: DT_INT32
    }
  }
  attr {
    key: "SrcT"
    value {
      type: DT_FLOAT
    }
  }
  attr {
    key: "Truncate"
    value {
      b: false
    }
  }
  attr {
    key: "_output_shapes"
    value {
      list {
        shape {
          dim {
            size: 2
          }
        }
      }
    }
  }
}
node {
  name: "batch/Const"
  op: "Const"
  attr {
    key: "_output_shapes"
    value {
      list {
        shape {
        }
      }
    }
  }
  attr {
    key: "dtype"
    value {
      type: DT_BOOL
    }
  }
  attr {
    key: "value"
    value {
      tensor {
        dtype: DT_BOOL
        tensor_shape {
        }
        bool_val: true
      }
    }
  }
}
node {
  name: "batch/fifo_queue"
  op: "FIFOQueueV2"
  device: "/device:CPU:*"
  attr {
    key: "_output_shapes"
    value {
      list {
        shape {
        }
      }
    }
  }
  attr {
    key: "capacity"
    value {
      i: 32
    }
  }
  attr {
    key: "component_types"
    value {
      list {
        type: DT_STRING
        type: DT_FLOAT
        type: DT_FLOAT
      }
    }
  }
  attr {
    key: "container"
    value {
      s: ""
    }
  }
  attr {
    key: "shapes"
    value {
      list {
        shape {
        }
        shape {
          dim {
            size: 256
          }
          dim {
            size: 256
          }
          dim {
            size: 3
          }
        }
        shape {
          dim {
            size: 256
          }
          dim {
            size: 256
          }
          dim {
            size: 3
          }
        }
      }
    }
  }
  attr {
    key: "shared_name"
    value {
      s: ""
    }
  }
}
node {
  name: "batch/fifo_queue_enqueue"
  op: "QueueEnqueueV2"
  input: "batch/fifo_queue"
  input: "load_images/ReaderReadV2"
  input: "input_images/resize/Squeeze"
  input: "target_images/resize/Squeeze"
  attr {
    key: "Tcomponents"
    value {
      list {
        type: DT_STRING
        type: DT_FLOAT
        type: DT_FLOAT
      }
    }
  }
  attr {
    key: "timeout_ms"
    value {
      i: -1
    }
  }
}
node {
  name: "batch/fifo_queue_Close"
  op: "QueueCloseV2"
  input: "batch/fifo_queue"
  attr {
    key: "cancel_pending_enqueues"
    value {
      b: false
    }
  }
}
node {
  name: "batch/fifo_queue_Close_1"
  op: "QueueCloseV2"
  input: "batch/fifo_queue"
  attr {
    key: "cancel_pending_enqueues"
    value {
      b: true
    }
  }
}
node {
  name: "batch/fifo_queue_Size"
  op: "QueueSizeV2"
  input: "batch/fifo_queue"
  attr {
    key: "_output_shapes"
    value {
      list {
        shape {
        }
      }
    }
  }
}
node {
  name: "batch/Cast"
  op: "Cast"
  input: "batch/fifo_queue_Size"
  attr {
    key: "DstT"
    value {
      type: DT_FLOAT
    }
  }
  attr {
    key: "SrcT"
    value {
      type: DT_INT32
    }
  }
  attr {
    key: "Truncate"
    value {
      b: false
    }
  }
  attr {
    key: "_output_shapes"
    value {
      list {
        shape {
        }
      }
    }
  }
}
node {
  name: "batch/mul/y"
  op: "Const"
  attr {
    key: "_output_shapes"
    value {
      list {
        shape {
        }
      }
    }
  }
  attr {
    key: "dtype"
    value {
      type: DT_FLOAT
    }
  }
  attr {
    key: "value"
    value {
      tensor {
        dtype: DT_FLOAT
        tensor_shape {
        }
        float_val: 0.03125
      }
    }
  }
}
node {
  name: "batch/mul"
  op: "Mul"
  input: "batch/Cast"
  input: "batch/mul/y"
  attr {
    key: "T"
    value {
      type: DT_FLOAT
    }
  }
  attr {
    key: "_output_shapes"
    value {
      list {
        shape {
        }
      }
    }
  }
}
node {
  name: "batch/fraction_of_32_full/tags"
  op: "Const"
  attr {
    key: "_output_shapes"
    value {
      list {
        shape {
        }
      }
    }
  }
  attr {
    key: "dtype"
    value {
      type: DT_STRING
    }
  }
  attr {
    key: "value"
    value {
      tensor {
        dtype: DT_STRING
        tensor_shape {
        }
        string_val: "batch/fraction_of_32_full"
      }
    }
  }
}
node {
  name: "batch/fraction_of_32_full"
  op: "ScalarSummary"
  input: "batch/fraction_of_32_full/tags"
  input: "batch/mul"
  attr {
    key: "T"
    value {
      type: DT_FLOAT
    }
  }
  attr {
    key: "_output_shapes"
    value {
      list {
        shape {
        }
      }
    }
  }
}
node {
  name: "batch/n"
  op: "Const"
  attr {
    key: "_output_shapes"
    value {
      list {
        shape {
        }
      }
    }
  }
  attr {
    key: "dtype"
    value {
      type: DT_INT32
    }
  }
  attr {
    key: "value"
    value {
      tensor {
        dtype: DT_INT32
        tensor_shape {
        }
        int_val: 1
      }
    }
  }
}
node {
  name: "batch"
  op: "QueueDequeueManyV2"
  input: "batch/fifo_queue"
  input: "batch/n"
  attr {
    key: "_output_shapes"
    value {
      list {
        shape {
          dim {
            size: 1
          }
        }
        shape {
          dim {
            size: 1
          }
          dim {
            size: 256
          }
          dim {
            size: 256
          }
          dim {
            size: 3
          }
        }
        shape {
          dim {
            size: 1
          }
          dim {
            size: 256
          }
          dim {
            size: 256
          }
          dim {
            size: 3
          }
        }
      }
    }
  }
  attr {
    key: "component_types"
    value {
      list {
        type: DT_STRING
        type: DT_FLOAT
        type: DT_FLOAT
      }
    }
  }
  attr {
    key: "timeout_ms"
    value {
      i: -1
    }
  }
}
node {
  name: "generator/encoder_1/conv2d/kernel/Initializer/random_normal/shape"
  op: "Const"
  attr {
    key: "_class"
    value {
      list {
        s: "loc:@generator/encoder_1/conv2d/kernel"
      }
    }
  }
  attr {
    key: "_output_shapes"
    value {
      list {
        shape {
          dim {
            size: 4
          }
        }
      }
    }
  }
  attr {
    key: "dtype"
    value {
      type: DT_INT32
    }
  }
  attr {
    key: "value"
    value {
      tensor {
        dtype: DT_INT32
        tensor_shape {
          dim {
            size: 4
          }
        }
        tensor_content: "\004\000\000\000\004\000\000\000\003\000\000\000@\000\000\000"
      }
    }
  }
}
node {
  name: "generator/encoder_1/conv2d/kernel/Initializer/random_normal/mean"
  op: "Const"
  attr {
    key: "_class"
    value {
      list {
        s: "loc:@generator/encoder_1/conv2d/kernel"
      }
    }
  }
  attr {
    key: "_output_shapes"
    value {
      list {
        shape {
        }
      }
    }
  }
  attr {
    key: "dtype"
    value {
      type: DT_FLOAT
    }
  }
  attr {
    key: "value"
    value {
      tensor {
        dtype: DT_FLOAT
        tensor_shape {
        }
        float_val: 0.0
      }
    }
  }
}
node {
  name: "generator/encoder_1/conv2d/kernel/Initializer/random_normal/stddev"
  op: "Const"
  attr {
    key: "_class"
    value {
      list {
        s: "loc:@generator/encoder_1/conv2d/kernel"
      }
    }
  }
  attr {
    key: "_output_shapes"
    value {
      list {
        shape {
        }
      }
    }
  }
  attr {
    key: "dtype"
    value {
      type: DT_FLOAT
    }
  }
  attr {
    key: "value"
    value {
      tensor {
        dtype: DT_FLOAT
        tensor_shape {
        }
        float_val: 0.019999999552965164
      }
    }
  }
}
node {
  name: "generator/encoder_1/conv2d/kernel/Initializer/random_normal/RandomStandardNormal"
  op: "RandomStandardNormal"
  input: "generator/encoder_1/conv2d/kernel/Initializer/random_normal/shape"
  attr {
    key: "T"
    value {
      type: DT_INT32
    }
  }
  attr {
    key: "_class"
    value {
      list {
        s: "loc:@generator/encoder_1/conv2d/kernel"
      }
    }
  }
  attr {
    key: "_output_shapes"
    value {
      list {
        shape {
          dim {
            size: 4
          }
          dim {
            size: 4
          }
          dim {
            size: 3
          }
          dim {
            size: 64
          }
        }
      }
    }
  }
  attr {
    key: "dtype"
    value {
      type: DT_FLOAT
    }
  }
  attr {
    key: "seed"
    value {
      i: 2122079
    }
  }
  attr {
    key: "seed2"
    value {
      i: 0
    }
  }
}
node {
  name: "generator/encoder_1/conv2d/kernel/Initializer/random_normal/mul"
  op: "Mul"
  input: "generator/encoder_1/conv2d/kernel/Initializer/random_normal/RandomStandardNormal"
  input: "generator/encoder_1/conv2d/kernel/Initializer/random_normal/stddev"
  attr {
    key: "T"
    value {
      type: DT_FLOAT
    }
  }
  attr {
    key: "_class"
    value {
      list {
        s: "loc:@generator/encoder_1/conv2d/kernel"
      }
    }
  }
  attr {
    key: "_output_shapes"
    value {
      list {
        shape {
          dim {
            size: 4
          }
          dim {
            size: 4
          }
          dim {
            size: 3
          }
          dim {
            size: 64
          }
        }
      }
    }
  }
}
node {
  name: "generator/encoder_1/conv2d/kernel/Initializer/random_normal"
  op: "AddV2"
  input: "generator/encoder_1/conv2d/kernel/Initializer/random_normal/mul"
  input: "generator/encoder_1/conv2d/kernel/Initializer/random_normal/mean"
  attr {
    key: "T"
    value {
      type: DT_FLOAT
    }
  }
  attr {
    key: "_class"
    value {
      list {
        s: "loc:@generator/encoder_1/conv2d/kernel"
      }
    }
  }
  attr {
    key: "_output_shapes"
    value {
      list {
        shape {
          dim {
            size: 4
          }
          dim {
            size: 4
          }
          dim {
            size: 3
          }
          dim {
            size: 64
          }
        }
      }
    }
  }
}
node {
  name: "generator/encoder_1/conv2d/kernel"
  op: "VarHandleOp"
  attr {
    key: "_class"
    value {
      list {
        s: "loc:@generator/encoder_1/conv2d/kernel"
      }
    }
  }
  attr {
    key: "_output_shapes"
    value {
      list {
        shape {
        }
      }
    }
  }
  attr {
    key: "allowed_devices"
    value {
      list {
      }
    }
  }
  attr {
    key: "container"
    value {
      s: ""
    }
  }
  attr {
    key: "dtype"
    value {
      type: DT_FLOAT
    }
  }
  attr {
    key: "shape"
    value {
      shape {
        dim {
          size: 4
        }
        dim {
          size: 4
        }
        dim {
          size: 3
        }
        dim {
          size: 64
        }
      }
    }
  }
  attr {
    key: "shared_name"
    value {
      s: "generator/encoder_1/conv2d/kernel"
    }
  }
}
node {
  name: "generator/encoder_1/conv2d/kernel/IsInitialized/VarIsInitializedOp"
  op: "VarIsInitializedOp"
  input: "generator/encoder_1/conv2d/kernel"
  attr {
    key: "_output_shapes"
    value {
      list {
        shape {
        }
      }
    }
  }
}
node {
  name: "generator/encoder_1/conv2d/kernel/Assign"
  op: "AssignVariableOp"
  input: "generator/encoder_1/conv2d/kernel"
  input: "generator/encoder_1/conv2d/kernel/Initializer/random_normal"
  attr {
    key: "dtype"
    value {
      type: DT_FLOAT
    }
  }
  attr {
    key: "validate_shape"
    value {
      b: false
    }
  }
}
node {
  name: "generator/encoder_1/conv2d/kernel/Read/ReadVariableOp"
  op: "ReadVariableOp"
  input: "generator/encoder_1/conv2d/kernel"
  attr {
    key: "_output_shapes"
    value {
      list {
        shape {
          dim {
            size: 4
          }
          dim {
            size: 4
          }
          dim {
            size: 3
          }
          dim {
            size: 64
          }
        }
      }
    }
  }
  attr {
    key: "dtype"
    value {
      type: DT_FLOAT
    }
  }
}
node {
  name: "generator/encoder_1/conv2d/bias/Initializer/zeros"
  op: "Const"
  attr {
    key: "_class"
    value {
      list {
        s: "loc:@generator/encoder_1/conv2d/bias"
      }
    }
  }
  attr {
    key: "_output_shapes"
    value {
      list {
        shape {
          dim {
            size: 64
          }
        }
      }
    }
  }
  attr {
    key: "dtype"
    value {
      type: DT_FLOAT
    }
  }
  attr {
    key: "value"
    value {
      tensor {
        dtype: DT_FLOAT
        tensor_shape {
          dim {
            size: 64
          }
        }
        float_val: 0.0
      }
    }
  }
}
node {
  name: "generator/encoder_1/conv2d/bias"
  op: "VarHandleOp"
  attr {
    key: "_class"
    value {
      list {
        s: "loc:@generator/encoder_1/conv2d/bias"
      }
    }
  }
  attr {
    key: "_output_shapes"
    value {
      list {
        shape {
        }
      }
    }
  }
  attr {
    key: "allowed_devices"
    value {
      list {
      }
    }
  }
  attr {
    key: "container"
    value {
      s: ""
    }
  }
  attr {
    key: "dtype"
    value {
      type: DT_FLOAT
    }
  }
  attr {
    key: "shape"
    value {
      shape {
        dim {
          size: 64
        }
      }
    }
  }
  attr {
    key: "shared_name"
    value {
      s: "generator/encoder_1/conv2d/bias"
    }
  }
}
node {
  name: "generator/encoder_1/conv2d/bias/IsInitialized/VarIsInitializedOp"
  op: "VarIsInitializedOp"
  input: "generator/encoder_1/conv2d/bias"
  attr {
    key: "_output_shapes"
    value {
      list {
        shape {
        }
      }
    }
  }
}
node {
  name: "generator/encoder_1/conv2d/bias/Assign"
  op: "AssignVariableOp"
  input: "generator/encoder_1/conv2d/bias"
  input: "generator/encoder_1/conv2d/bias/Initializer/zeros"
  attr {
    key: "dtype"
    value {
      type: DT_FLOAT
    }
  }
  attr {
    key: "validate_shape"
    value {
      b: false
    }
  }
}
node {
  name: "generator/encoder_1/conv2d/bias/Read/ReadVariableOp"
  op: "ReadVariableOp"
  input: "generator/encoder_1/conv2d/bias"
  attr {
    key: "_output_shapes"
    value {
      list {
        shape {
          dim {
            size: 64
          }
        }
      }
    }
  }
  attr {
    key: "dtype"
    value {
      type: DT_FLOAT
    }
  }
}
node {
  name: "generator/encoder_1/conv2d/Conv2D/ReadVariableOp"
  op: "ReadVariableOp"
  input: "generator/encoder_1/conv2d/kernel"
  attr {
    key: "_output_shapes"
    value {
      list {
        shape {
          dim {
            size: 4
          }
          dim {
            size: 4
          }
          dim {
            size: 3
          }
          dim {
            size: 64
          }
        }
      }
    }
  }
  attr {
    key: "dtype"
    value {
      type: DT_FLOAT
    }
  }
}
node {
  name: "generator/encoder_1/conv2d/Conv2D"
  op: "Conv2D"
  input: "batch:1"
  input: "generator/encoder_1/conv2d/Conv2D/ReadVariableOp"
  attr {
    key: "T"
    value {
      type: DT_FLOAT
    }
  }
  attr {
    key: "_output_shapes"
    value {
      list {
        shape {
          dim {
            size: 1
          }
          dim {
            size: 128
          }
          dim {
            size: 128
          }
          dim {
            size: 64
          }
        }
      }
    }
  }
  attr {
    key: "data_format"
    value {
      s: "NHWC"
    }
  }
  attr {
    key: "dilations"
    value {
      list {
        i: 1
        i: 1
        i: 1
        i: 1
      }
    }
  }
  attr {
    key: "explicit_paddings"
    value {
      list {
      }
    }
  }
  attr {
    key: "padding"
    value {
      s: "SAME"
    }
  }
  attr {
    key: "strides"
    value {
      list {
        i: 1
        i: 2
        i: 2
        i: 1
      }
    }
  }
  attr {
    key: "use_cudnn_on_gpu"
    value {
      b: true
    }
  }
}
node {
  name: "generator/encoder_1/conv2d/BiasAdd/ReadVariableOp"
  op: "ReadVariableOp"
  input: "generator/encoder_1/conv2d/bias"
  attr {
    key: "_output_shapes"
    value {
      list {
        shape {
          dim {
            size: 64
          }
        }
      }
    }
  }
  attr {
    key: "dtype"
    value {
      type: DT_FLOAT
    }
  }
}
node {
  name: "generator/encoder_1/conv2d/BiasAdd"
  op: "BiasAdd"
  input: "generator/encoder_1/conv2d/Conv2D"
  input: "generator/encoder_1/conv2d/BiasAdd/ReadVariableOp"
  attr {
    key: "T"
    value {
      type: DT_FLOAT
    }
  }
  attr {
    key: "_output_shapes"
    value {
      list {
        shape {
          dim {
            size: 1
          }
          dim {
            size: 128
          }
          dim {
            size: 128
          }
          dim {
            size: 64
          }
        }
      }
    }
  }
  attr {
    key: "data_format"
    value {
      s: "NHWC"
    }
  }
}
node {
  name: "generator/encoder_2/lrelu/Identity"
  op: "Identity"
  input: "generator/encoder_1/conv2d/BiasAdd"
  attr {
    key: "T"
    value {
      type: DT_FLOAT
    }
  }
  attr {
    key: "_output_shapes"
    value {
      list {
        shape {
          dim {
            size: 1
          }
          dim {
            size: 128
          }
          dim {
            size: 128
          }
          dim {
            size: 64
          }
        }
      }
    }
  }
}
node {
  name: "generator/encoder_2/lrelu/mul/x"
  op: "Const"
  attr {
    key: "_output_shapes"
    value {
      list {
        shape {
        }
      }
    }
  }
  attr {
    key: "dtype"
    value {
      type: DT_FLOAT
    }
  }
  attr {
    key: "value"
    value {
      tensor {
        dtype: DT_FLOAT
        tensor_shape {
        }
        float_val: 0.6000000238418579
      }
    }
  }
}
node {
  name: "generator/encoder_2/lrelu/mul"
  op: "Mul"
  input: "generator/encoder_2/lrelu/mul/x"
  input: "generator/encoder_2/lrelu/Identity"
  attr {
    key: "T"
    value {
      type: DT_FLOAT
    }
  }
  attr {
    key: "_output_shapes"
    value {
      list {
        shape {
          dim {
            size: 1
          }
          dim {
            size: 128
          }
          dim {
            size: 128
          }
          dim {
            size: 64
          }
        }
      }
    }
  }
}
node {
  name: "generator/encoder_2/lrelu/Abs"
  op: "Abs"
  input: "generator/encoder_2/lrelu/Identity"
  attr {
    key: "T"
    value {
      type: DT_FLOAT
    }
  }
  attr {
    key: "_output_shapes"
    value {
      list {
        shape {
          dim {
            size: 1
          }
          dim {
            size: 128
          }
          dim {
            size: 128
          }
          dim {
            size: 64
          }
        }
      }
    }
  }
}
node {
  name: "generator/encoder_2/lrelu/mul_1/x"
  op: "Const"
  attr {
    key: "_output_shapes"
    value {
      list {
        shape {
        }
      }
    }
  }
  attr {
    key: "dtype"
    value {
      type: DT_FLOAT
    }
  }
  attr {
    key: "value"
    value {
      tensor {
        dtype: DT_FLOAT
        tensor_shape {
        }
        float_val: 0.4000000059604645
      }
    }
  }
}
node {
  name: "generator/encoder_2/lrelu/mul_1"
  op: "Mul"
  input: "generator/encoder_2/lrelu/mul_1/x"
  input: "generator/encoder_2/lrelu/Abs"
  attr {
    key: "T"
    value {
      type: DT_FLOAT
    }
  }
  attr {
    key: "_output_shapes"
    value {
      list {
        shape {
          dim {
            size: 1
          }
          dim {
            size: 128
          }
          dim {
            size: 128
          }
          dim {
            size: 64
          }
        }
      }
    }
  }
}
node {
  name: "generator/encoder_2/lrelu/add"
  op: "AddV2"
  input: "generator/encoder_2/lrelu/mul"
  input: "generator/encoder_2/lrelu/mul_1"
  attr {
    key: "T"
    value {
      type: DT_FLOAT
    }
  }
  attr {
    key: "_output_shapes"
    value {
      list {
        shape {
          dim {
            size: 1
          }
          dim {
            size: 128
          }
          dim {
            size: 128
          }
          dim {
            size: 64
          }
        }
      }
    }
  }
}
node {
  name: "generator/encoder_2/conv2d/kernel/Initializer/random_normal/shape"
  op: "Const"
  attr {
    key: "_class"
    value {
      list {
        s: "loc:@generator/encoder_2/conv2d/kernel"
      }
    }
  }
  attr {
    key: "_output_shapes"
    value {
      list {
        shape {
          dim {
            size: 4
          }
        }
      }
    }
  }
  attr {
    key: "dtype"
    value {
      type: DT_INT32
    }
  }
  attr {
    key: "value"
    value {
      tensor {
        dtype: DT_INT32
        tensor_shape {
          dim {
            size: 4
          }
        }
        tensor_content: "\004\000\000\000\004\000\000\000@\000\000\000\200\000\000\000"
      }
    }
  }
}
node {
  name: "generator/encoder_2/conv2d/kernel/Initializer/random_normal/mean"
  op: "Const"
  attr {
    key: "_class"
    value {
      list {
        s: "loc:@generator/encoder_2/conv2d/kernel"
      }
    }
  }
  attr {
    key: "_output_shapes"
    value {
      list {
        shape {
        }
      }
    }
  }
  attr {
    key: "dtype"
    value {
      type: DT_FLOAT
    }
  }
  attr {
    key: "value"
    value {
      tensor {
        dtype: DT_FLOAT
        tensor_shape {
        }
        float_val: 0.0
      }
    }
  }
}
node {
  name: "generator/encoder_2/conv2d/kernel/Initializer/random_normal/stddev"
  op: "Const"
  attr {
    key: "_class"
    value {
      list {
        s: "loc:@generator/encoder_2/conv2d/kernel"
      }
    }
  }
  attr {
    key: "_output_shapes"
    value {
      list {
        shape {
        }
      }
    }
  }
  attr {
    key: "dtype"
    value {
      type: DT_FLOAT
    }
  }
  attr {
    key: "value"
    value {
      tensor {
        dtype: DT_FLOAT
        tensor_shape {
        }
        float_val: 0.019999999552965164
      }
    }
  }
}
node {
  name: "generator/encoder_2/conv2d/kernel/Initializer/random_normal/RandomStandardNormal"
  op: "RandomStandardNormal"
  input: "generator/encoder_2/conv2d/kernel/Initializer/random_normal/shape"
  attr {
    key: "T"
    value {
      type: DT_INT32
    }
  }
  attr {
    key: "_class"
    value {
      list {
        s: "loc:@generator/encoder_2/conv2d/kernel"
      }
    }
  }
  attr {
    key: "_output_shapes"
    value {
      list {
        shape {
          dim {
            size: 4
          }
          dim {
            size: 4
          }
          dim {
            size: 64
          }
          dim {
            size: 128
          }
        }
      }
    }
  }
  attr {
    key: "dtype"
    value {
      type: DT_FLOAT
    }
  }
  attr {
    key: "seed"
    value {
      i: 2122079
    }
  }
  attr {
    key: "seed2"
    value {
      i: 1
    }
  }
}
node {
  name: "generator/encoder_2/conv2d/kernel/Initializer/random_normal/mul"
  op: "Mul"
  input: "generator/encoder_2/conv2d/kernel/Initializer/random_normal/RandomStandardNormal"
  input: "generator/encoder_2/conv2d/kernel/Initializer/random_normal/stddev"
  attr {
    key: "T"
    value {
      type: DT_FLOAT
    }
  }
  attr {
    key: "_class"
    value {
      list {
        s: "loc:@generator/encoder_2/conv2d/kernel"
      }
    }
  }
  attr {
    key: "_output_shapes"
    value {
      list {
        shape {
          dim {
            size: 4
          }
          dim {
            size: 4
          }
          dim {
            size: 64
          }
          dim {
            size: 128
          }
        }
      }
    }
  }
}
node {
  name: "generator/encoder_2/conv2d/kernel/Initializer/random_normal"
  op: "AddV2"
  input: "generator/encoder_2/conv2d/kernel/Initializer/random_normal/mul"
  input: "generator/encoder_2/conv2d/kernel/Initializer/random_normal/mean"
  attr {
    key: "T"
    value {
      type: DT_FLOAT
    }
  }
  attr {
    key: "_class"
    value {
      list {
        s: "loc:@generator/encoder_2/conv2d/kernel"
      }
    }
  }
  attr {
    key: "_output_shapes"
    value {
      list {
        shape {
          dim {
            size: 4
          }
          dim {
            size: 4
          }
          dim {
            size: 64
          }
          dim {
            size: 128
          }
        }
      }
    }
  }
}
node {
  name: "generator/encoder_2/conv2d/kernel"
  op: "VarHandleOp"
  attr {
    key: "_class"
    value {
      list {
        s: "loc:@generator/encoder_2/conv2d/kernel"
      }
    }
  }
  attr {
    key: "_output_shapes"
    value {
      list {
        shape {
        }
      }
    }
  }
  attr {
    key: "allowed_devices"
    value {
      list {
      }
    }
  }
  attr {
    key: "container"
    value {
      s: ""
    }
  }
  attr {
    key: "dtype"
    value {
      type: DT_FLOAT
    }
  }
  attr {
    key: "shape"
    value {
      shape {
        dim {
          size: 4
        }
        dim {
          size: 4
        }
        dim {
          size: 64
        }
        dim {
          size: 128
        }
      }
    }
  }
  attr {
    key: "shared_name"
    value {
      s: "generator/encoder_2/conv2d/kernel"
    }
  }
}
node {
  name: "generator/encoder_2/conv2d/kernel/IsInitialized/VarIsInitializedOp"
  op: "VarIsInitializedOp"
  input: "generator/encoder_2/conv2d/kernel"
  attr {
    key: "_output_shapes"
    value {
      list {
        shape {
        }
      }
    }
  }
}
node {
  name: "generator/encoder_2/conv2d/kernel/Assign"
  op: "AssignVariableOp"
  input: "generator/encoder_2/conv2d/kernel"
  input: "generator/encoder_2/conv2d/kernel/Initializer/random_normal"
  attr {
    key: "dtype"
    value {
      type: DT_FLOAT
    }
  }
  attr {
    key: "validate_shape"
    value {
      b: false
    }
  }
}
node {
  name: "generator/encoder_2/conv2d/kernel/Read/ReadVariableOp"
  op: "ReadVariableOp"
  input: "generator/encoder_2/conv2d/kernel"
  attr {
    key: "_output_shapes"
    value {
      list {
        shape {
          dim {
            size: 4
          }
          dim {
            size: 4
          }
          dim {
            size: 64
          }
          dim {
            size: 128
          }
        }
      }
    }
  }
  attr {
    key: "dtype"
    value {
      type: DT_FLOAT
    }
  }
}
node {
  name: "generator/encoder_2/conv2d/bias/Initializer/zeros"
  op: "Const"
  attr {
    key: "_class"
    value {
      list {
        s: "loc:@generator/encoder_2/conv2d/bias"
      }
    }
  }
  attr {
    key: "_output_shapes"
    value {
      list {
        shape {
          dim {
            size: 128
          }
        }
      }
    }
  }
  attr {
    key: "dtype"
    value {
      type: DT_FLOAT
    }
  }
  attr {
    key: "value"
    value {
      tensor {
        dtype: DT_FLOAT
        tensor_shape {
          dim {
            size: 128
          }
        }
        float_val: 0.0
      }
    }
  }
}
node {
  name: "generator/encoder_2/conv2d/bias"
  op: "VarHandleOp"
  attr {
    key: "_class"
    value {
      list {
        s: "loc:@generator/encoder_2/conv2d/bias"
      }
    }
  }
  attr {
    key: "_output_shapes"
    value {
      list {
        shape {
        }
      }
    }
  }
  attr {
    key: "allowed_devices"
    value {
      list {
      }
    }
  }
  attr {
    key: "container"
    value {
      s: ""
    }
  }
  attr {
    key: "dtype"
    value {
      type: DT_FLOAT
    }
  }
  attr {
    key: "shape"
    value {
      shape {
        dim {
          size: 128
        }
      }
    }
  }
  attr {
    key: "shared_name"
    value {
      s: "generator/encoder_2/conv2d/bias"
    }
  }
}
node {
  name: "generator/encoder_2/conv2d/bias/IsInitialized/VarIsInitializedOp"
  op: "VarIsInitializedOp"
  input: "generator/encoder_2/conv2d/bias"
  attr {
    key: "_output_shapes"
    value {
      list {
        shape {
        }
      }
    }
  }
}
node {
  name: "generator/encoder_2/conv2d/bias/Assign"
  op: "AssignVariableOp"
  input: "generator/encoder_2/conv2d/bias"
  input: "generator/encoder_2/conv2d/bias/Initializer/zeros"
  attr {
    key: "dtype"
    value {
      type: DT_FLOAT
    }
  }
  attr {
    key: "validate_shape"
    value {
      b: false
    }
  }
}
node {
  name: "generator/encoder_2/conv2d/bias/Read/ReadVariableOp"
  op: "ReadVariableOp"
  input: "generator/encoder_2/conv2d/bias"
  attr {
    key: "_output_shapes"
    value {
      list {
        shape {
          dim {
            size: 128
          }
        }
      }
    }
  }
  attr {
    key: "dtype"
    value {
      type: DT_FLOAT
    }
  }
}
node {
  name: "generator/encoder_2/conv2d/Conv2D/ReadVariableOp"
  op: "ReadVariableOp"
  input: "generator/encoder_2/conv2d/kernel"
  attr {
    key: "_output_shapes"
    value {
      list {
        shape {
          dim {
            size: 4
          }
          dim {
            size: 4
          }
          dim {
            size: 64
          }
          dim {
            size: 128
          }
        }
      }
    }
  }
  attr {
    key: "dtype"
    value {
      type: DT_FLOAT
    }
  }
}
node {
  name: "generator/encoder_2/conv2d/Conv2D"
  op: "Conv2D"
  input: "generator/encoder_2/lrelu/add"
  input: "generator/encoder_2/conv2d/Conv2D/ReadVariableOp"
  attr {
    key: "T"
    value {
      type: DT_FLOAT
    }
  }
  attr {
    key: "_output_shapes"
    value {
      list {
        shape {
          dim {
            size: 1
          }
          dim {
            size: 64
          }
          dim {
            size: 64
          }
          dim {
            size: 128
          }
        }
      }
    }
  }
  attr {
    key: "data_format"
    value {
      s: "NHWC"
    }
  }
  attr {
    key: "dilations"
    value {
      list {
        i: 1
        i: 1
        i: 1
        i: 1
      }
    }
  }
  attr {
    key: "explicit_paddings"
    value {
      list {
      }
    }
  }
  attr {
    key: "padding"
    value {
      s: "SAME"
    }
  }
  attr {
    key: "strides"
    value {
      list {
        i: 1
        i: 2
        i: 2
        i: 1
      }
    }
  }
  attr {
    key: "use_cudnn_on_gpu"
    value {
      b: true
    }
  }
}
node {
  name: "generator/encoder_2/conv2d/BiasAdd/ReadVariableOp"
  op: "ReadVariableOp"
  input: "generator/encoder_2/conv2d/bias"
  attr {
    key: "_output_shapes"
    value {
      list {
        shape {
          dim {
            size: 128
          }
        }
      }
    }
  }
  attr {
    key: "dtype"
    value {
      type: DT_FLOAT
    }
  }
}
node {
  name: "generator/encoder_2/conv2d/BiasAdd"
  op: "BiasAdd"
  input: "generator/encoder_2/conv2d/Conv2D"
  input: "generator/encoder_2/conv2d/BiasAdd/ReadVariableOp"
  attr {
    key: "T"
    value {
      type: DT_FLOAT
    }
  }
  attr {
    key: "_output_shapes"
    value {
      list {
        shape {
          dim {
            size: 1
          }
          dim {
            size: 64
          }
          dim {
            size: 64
          }
          dim {
            size: 128
          }
        }
      }
    }
  }
  attr {
    key: "data_format"
    value {
      s: "NHWC"
    }
  }
}
node {
  name: "generator/encoder_2/batch_normalization/gamma/Initializer/random_normal/shape"
  op: "Const"
  attr {
    key: "_class"
    value {
      list {
        s: "loc:@generator/encoder_2/batch_normalization/gamma"
      }
    }
  }
  attr {
    key: "_output_shapes"
    value {
      list {
        shape {
          dim {
            size: 1
          }
        }
      }
    }
  }
  attr {
    key: "dtype"
    value {
      type: DT_INT32
    }
  }
  attr {
    key: "value"
    value {
      tensor {
        dtype: DT_INT32
        tensor_shape {
          dim {
            size: 1
          }
        }
        int_val: 128
      }
    }
  }
}
node {
  name: "generator/encoder_2/batch_normalization/gamma/Initializer/random_normal/mean"
  op: "Const"
  attr {
    key: "_class"
    value {
      list {
        s: "loc:@generator/encoder_2/batch_normalization/gamma"
      }
    }
  }
  attr {
    key: "_output_shapes"
    value {
      list {
        shape {
        }
      }
    }
  }
  attr {
    key: "dtype"
    value {
      type: DT_FLOAT
    }
  }
  attr {
    key: "value"
    value {
      tensor {
        dtype: DT_FLOAT
        tensor_shape {
        }
        float_val: 1.0
      }
    }
  }
}
node {
  name: "generator/encoder_2/batch_normalization/gamma/Initializer/random_normal/stddev"
  op: "Const"
  attr {
    key: "_class"
    value {
      list {
        s: "loc:@generator/encoder_2/batch_normalization/gamma"
      }
    }
  }
  attr {
    key: "_output_shapes"
    value {
      list {
        shape {
        }
      }
    }
  }
  attr {
    key: "dtype"
    value {
      type: DT_FLOAT
    }
  }
  attr {
    key: "value"
    value {
      tensor {
        dtype: DT_FLOAT
        tensor_shape {
        }
        float_val: 0.019999999552965164
      }
    }
  }
}
node {
  name: "generator/encoder_2/batch_normalization/gamma/Initializer/random_normal/RandomStandardNormal"
  op: "RandomStandardNormal"
  input: "generator/encoder_2/batch_normalization/gamma/Initializer/random_normal/shape"
  attr {
    key: "T"
    value {
      type: DT_INT32
    }
  }
  attr {
    key: "_class"
    value {
      list {
        s: "loc:@generator/encoder_2/batch_normalization/gamma"
      }
    }
  }
  attr {
    key: "_output_shapes"
    value {
      list {
        shape {
          dim {
            size: 128
          }
        }
      }
    }
  }
  attr {
    key: "dtype"
    value {
      type: DT_FLOAT
    }
  }
  attr {
    key: "seed"
    value {
      i: 2122079
    }
  }
  attr {
    key: "seed2"
    value {
      i: 2
    }
  }
}
node {
  name: "generator/encoder_2/batch_normalization/gamma/Initializer/random_normal/mul"
  op: "Mul"
  input: "generator/encoder_2/batch_normalization/gamma/Initializer/random_normal/RandomStandardNormal"
  input: "generator/encoder_2/batch_normalization/gamma/Initializer/random_normal/stddev"
  attr {
    key: "T"
    value {
      type: DT_FLOAT
    }
  }
  attr {
    key: "_class"
    value {
      list {
        s: "loc:@generator/encoder_2/batch_normalization/gamma"
      }
    }
  }
  attr {
    key: "_output_shapes"
    value {
      list {
        shape {
          dim {
            size: 128
          }
        }
      }
    }
  }
}
node {
  name: "generator/encoder_2/batch_normalization/gamma/Initializer/random_normal"
  op: "AddV2"
  input: "generator/encoder_2/batch_normalization/gamma/Initializer/random_normal/mul"
  input: "generator/encoder_2/batch_normalization/gamma/Initializer/random_normal/mean"
  attr {
    key: "T"
    value {
      type: DT_FLOAT
    }
  }
  attr {
    key: "_class"
    value {
      list {
        s: "loc:@generator/encoder_2/batch_normalization/gamma"
      }
    }
  }
  attr {
    key: "_output_shapes"
    value {
      list {
        shape {
          dim {
            size: 128
          }
        }
      }
    }
  }
}
node {
  name: "generator/encoder_2/batch_normalization/gamma"
  op: "VarHandleOp"
  attr {
    key: "_class"
    value {
      list {
        s: "loc:@generator/encoder_2/batch_normalization/gamma"
      }
    }
  }
  attr {
    key: "_output_shapes"
    value {
      list {
        shape {
        }
      }
    }
  }
  attr {
    key: "allowed_devices"
    value {
      list {
      }
    }
  }
  attr {
    key: "container"
    value {
      s: ""
    }
  }
  attr {
    key: "dtype"
    value {
      type: DT_FLOAT
    }
  }
  attr {
    key: "shape"
    value {
      shape {
        dim {
          size: 128
        }
      }
    }
  }
  attr {
    key: "shared_name"
    value {
      s: "generator/encoder_2/batch_normalization/gamma"
    }
  }
}
node {
  name: "generator/encoder_2/batch_normalization/gamma/IsInitialized/VarIsInitializedOp"
  op: "VarIsInitializedOp"
  input: "generator/encoder_2/batch_normalization/gamma"
  attr {
    key: "_output_shapes"
    value {
      list {
        shape {
        }
      }
    }
  }
}
node {
  name: "generator/encoder_2/batch_normalization/gamma/Assign"
  op: "AssignVariableOp"
  input: "generator/encoder_2/batch_normalization/gamma"
  input: "generator/encoder_2/batch_normalization/gamma/Initializer/random_normal"
  attr {
    key: "dtype"
    value {
      type: DT_FLOAT
    }
  }
  attr {
    key: "validate_shape"
    value {
      b: false
    }
  }
}
node {
  name: "generator/encoder_2/batch_normalization/gamma/Read/ReadVariableOp"
  op: "ReadVariableOp"
  input: "generator/encoder_2/batch_normalization/gamma"
  attr {
    key: "_output_shapes"
    value {
      list {
        shape {
          dim {
            size: 128
          }
        }
      }
    }
  }
  attr {
    key: "dtype"
    value {
      type: DT_FLOAT
    }
  }
}
node {
  name: "generator/encoder_2/batch_normalization/beta/Initializer/zeros"
  op: "Const"
  attr {
    key: "_class"
    value {
      list {
        s: "loc:@generator/encoder_2/batch_normalization/beta"
      }
    }
  }
  attr {
    key: "_output_shapes"
    value {
      list {
        shape {
          dim {
            size: 128
          }
        }
      }
    }
  }
  attr {
    key: "dtype"
    value {
      type: DT_FLOAT
    }
  }
  attr {
    key: "value"
    value {
      tensor {
        dtype: DT_FLOAT
        tensor_shape {
          dim {
            size: 128
          }
        }
        float_val: 0.0
      }
    }
  }
}
node {
  name: "generator/encoder_2/batch_normalization/beta"
  op: "VarHandleOp"
  attr {
    key: "_class"
    value {
      list {
        s: "loc:@generator/encoder_2/batch_normalization/beta"
      }
    }
  }
  attr {
    key: "_output_shapes"
    value {
      list {
        shape {
        }
      }
    }
  }
  attr {
    key: "allowed_devices"
    value {
      list {
      }
    }
  }
  attr {
    key: "container"
    value {
      s: ""
    }
  }
  attr {
    key: "dtype"
    value {
      type: DT_FLOAT
    }
  }
  attr {
    key: "shape"
    value {
      shape {
        dim {
          size: 128
        }
      }
    }
  }
  attr {
    key: "shared_name"
    value {
      s: "generator/encoder_2/batch_normalization/beta"
    }
  }
}
node {
  name: "generator/encoder_2/batch_normalization/beta/IsInitialized/VarIsInitializedOp"
  op: "VarIsInitializedOp"
  input: "generator/encoder_2/batch_normalization/beta"
  attr {
    key: "_output_shapes"
    value {
      list {
        shape {
        }
      }
    }
  }
}
node {
  name: "generator/encoder_2/batch_normalization/beta/Assign"
  op: "AssignVariableOp"
  input: "generator/encoder_2/batch_normalization/beta"
  input: "generator/encoder_2/batch_normalization/beta/Initializer/zeros"
  attr {
    key: "dtype"
    value {
      type: DT_FLOAT
    }
  }
  attr {
    key: "validate_shape"
    value {
      b: false
    }
  }
}
node {
  name: "generator/encoder_2/batch_normalization/beta/Read/ReadVariableOp"
  op: "ReadVariableOp"
  input: "generator/encoder_2/batch_normalization/beta"
  attr {
    key: "_output_shapes"
    value {
      list {
        shape {
          dim {
            size: 128
          }
        }
      }
    }
  }
  attr {
    key: "dtype"
    value {
      type: DT_FLOAT
    }
  }
}
node {
  name: "generator/encoder_2/batch_normalization/moving_mean/Initializer/zeros"
  op: "Const"
  attr {
    key: "_class"
    value {
      list {
        s: "loc:@generator/encoder_2/batch_normalization/moving_mean"
      }
    }
  }
  attr {
    key: "_output_shapes"
    value {
      list {
        shape {
          dim {
            size: 128
          }
        }
      }
    }
  }
  attr {
    key: "dtype"
    value {
      type: DT_FLOAT
    }
  }
  attr {
    key: "value"
    value {
      tensor {
        dtype: DT_FLOAT
        tensor_shape {
          dim {
            size: 128
          }
        }
        float_val: 0.0
      }
    }
  }
}
node {
  name: "generator/encoder_2/batch_normalization/moving_mean"
  op: "VarHandleOp"
  attr {
    key: "_class"
    value {
      list {
        s: "loc:@generator/encoder_2/batch_normalization/moving_mean"
      }
    }
  }
  attr {
    key: "_output_shapes"
    value {
      list {
        shape {
        }
      }
    }
  }
  attr {
    key: "allowed_devices"
    value {
      list {
      }
    }
  }
  attr {
    key: "container"
    value {
      s: ""
    }
  }
  attr {
    key: "dtype"
    value {
      type: DT_FLOAT
    }
  }
  attr {
    key: "shape"
    value {
      shape {
        dim {
          size: 128
        }
      }
    }
  }
  attr {
    key: "shared_name"
    value {
      s: "generator/encoder_2/batch_normalization/moving_mean"
    }
  }
}
node {
  name: "generator/encoder_2/batch_normalization/moving_mean/IsInitialized/VarIsInitializedOp"
  op: "VarIsInitializedOp"
  input: "generator/encoder_2/batch_normalization/moving_mean"
  attr {
    key: "_output_shapes"
    value {
      list {
        shape {
        }
      }
    }
  }
}
node {
  name: "generator/encoder_2/batch_normalization/moving_mean/Assign"
  op: "AssignVariableOp"
  input: "generator/encoder_2/batch_normalization/moving_mean"
  input: "generator/encoder_2/batch_normalization/moving_mean/Initializer/zeros"
  attr {
    key: "dtype"
    value {
      type: DT_FLOAT
    }
  }
  attr {
    key: "validate_shape"
    value {
      b: false
    }
  }
}
node {
  name: "generator/encoder_2/batch_normalization/moving_mean/Read/ReadVariableOp"
  op: "ReadVariableOp"
  input: "generator/encoder_2/batch_normalization/moving_mean"
  attr {
    key: "_output_shapes"
    value {
      list {
        shape {
          dim {
            size: 128
          }
        }
      }
    }
  }
  attr {
    key: "dtype"
    value {
      type: DT_FLOAT
    }
  }
}
node {
  name: "generator/encoder_2/batch_normalization/moving_variance/Initializer/ones"
  op: "Const"
  attr {
    key: "_class"
    value {
      list {
        s: "loc:@generator/encoder_2/batch_normalization/moving_variance"
      }
    }
  }
  attr {
    key: "_output_shapes"
    value {
      list {
        shape {
          dim {
            size: 128
          }
        }
      }
    }
  }
  attr {
    key: "dtype"
    value {
      type: DT_FLOAT
    }
  }
  attr {
    key: "value"
    value {
      tensor {
        dtype: DT_FLOAT
        tensor_shape {
          dim {
            size: 128
          }
        }
        float_val: 1.0
      }
    }
  }
}
node {
  name: "generator/encoder_2/batch_normalization/moving_variance"
  op: "VarHandleOp"
  attr {
    key: "_class"
    value {
      list {
        s: "loc:@generator/encoder_2/batch_normalization/moving_variance"
      }
    }
  }
  attr {
    key: "_output_shapes"
    value {
      list {
        shape {
        }
      }
    }
  }
  attr {
    key: "allowed_devices"
    value {
      list {
      }
    }
  }
  attr {
    key: "container"
    value {
      s: ""
    }
  }
  attr {
    key: "dtype"
    value {
      type: DT_FLOAT
    }
  }
  attr {
    key: "shape"
    value {
      shape {
        dim {
          size: 128
        }
      }
    }
  }
  attr {
    key: "shared_name"
    value {
      s: "generator/encoder_2/batch_normalization/moving_variance"
    }
  }
}
node {
  name: "generator/encoder_2/batch_normalization/moving_variance/IsInitialized/VarIsInitializedOp"
  op: "VarIsInitializedOp"
  input: "generator/encoder_2/batch_normalization/moving_variance"
  attr {
    key: "_output_shapes"
    value {
      list {
        shape {
        }
      }
    }
  }
}
node {
  name: "generator/encoder_2/batch_normalization/moving_variance/Assign"
  op: "AssignVariableOp"
  input: "generator/encoder_2/batch_normalization/moving_variance"
  input: "generator/encoder_2/batch_normalization/moving_variance/Initializer/ones"
  attr {
    key: "dtype"
    value {
      type: DT_FLOAT
    }
  }
  attr {
    key: "validate_shape"
    value {
      b: false
    }
  }
}
node {
  name: "generator/encoder_2/batch_normalization/moving_variance/Read/ReadVariableOp"
  op: "ReadVariableOp"
  input: "generator/encoder_2/batch_normalization/moving_variance"
  attr {
    key: "_output_shapes"
    value {
      list {
        shape {
          dim {
            size: 128
          }
        }
      }
    }
  }
  attr {
    key: "dtype"
    value {
      type: DT_FLOAT
    }
  }
}
node {
  name: "generator/encoder_2/batch_normalization/ReadVariableOp"
  op: "ReadVariableOp"
  input: "generator/encoder_2/batch_normalization/gamma"
  attr {
    key: "_output_shapes"
    value {
      list {
        shape {
          dim {
            size: 128
          }
        }
      }
    }
  }
  attr {
    key: "dtype"
    value {
      type: DT_FLOAT
    }
  }
}
node {
  name: "generator/encoder_2/batch_normalization/ReadVariableOp_1"
  op: "ReadVariableOp"
  input: "generator/encoder_2/batch_normalization/beta"
  attr {
    key: "_output_shapes"
    value {
      list {
        shape {
          dim {
            size: 128
          }
        }
      }
    }
  }
  attr {
    key: "dtype"
    value {
      type: DT_FLOAT
    }
  }
}
node {
  name: "generator/encoder_2/batch_normalization/FusedBatchNormV3/ReadVariableOp"
  op: "ReadVariableOp"
  input: "generator/encoder_2/batch_normalization/moving_mean"
  attr {
    key: "_output_shapes"
    value {
      list {
        shape {
          dim {
            size: 128
          }
        }
      }
    }
  }
  attr {
    key: "dtype"
    value {
      type: DT_FLOAT
    }
  }
}
node {
  name: "generator/encoder_2/batch_normalization/FusedBatchNormV3/ReadVariableOp_1"
  op: "ReadVariableOp"
  input: "generator/encoder_2/batch_normalization/moving_variance"
  attr {
    key: "_output_shapes"
    value {
      list {
        shape {
          dim {
            size: 128
          }
        }
      }
    }
  }
  attr {
    key: "dtype"
    value {
      type: DT_FLOAT
    }
  }
}
node {
  name: "generator/encoder_2/batch_normalization/FusedBatchNormV3"
  op: "FusedBatchNormV3"
  input: "generator/encoder_2/conv2d/BiasAdd"
  input: "generator/encoder_2/batch_normalization/ReadVariableOp"
  input: "generator/encoder_2/batch_normalization/ReadVariableOp_1"
  input: "generator/encoder_2/batch_normalization/FusedBatchNormV3/ReadVariableOp"
  input: "generator/encoder_2/batch_normalization/FusedBatchNormV3/ReadVariableOp_1"
  attr {
    key: "T"
    value {
      type: DT_FLOAT
    }
  }
  attr {
    key: "U"
    value {
      type: DT_FLOAT
    }
  }
  attr {
    key: "_output_shapes"
    value {
      list {
        shape {
          dim {
            size: 1
          }
          dim {
            size: 64
          }
          dim {
            size: 64
          }
          dim {
            size: 128
          }
        }
        shape {
          dim {
            size: 128
          }
        }
        shape {
          dim {
            size: 128
          }
        }
        shape {
          dim {
            size: 128
          }
        }
        shape {
          dim {
            size: 128
          }
        }
        shape {
          unknown_rank: true
        }
      }
    }
  }
  attr {
    key: "data_format"
    value {
      s: "NHWC"
    }
  }
  attr {
    key: "epsilon"
    value {
      f: 1.0009999641624745e-05
    }
  }
  attr {
    key: "exponential_avg_factor"
    value {
      f: 1.0
    }
  }
  attr {
    key: "is_training"
    value {
      b: true
    }
  }
}
node {
  name: "generator/encoder_2/batch_normalization/Const"
  op: "Const"
  attr {
    key: "_output_shapes"
    value {
      list {
        shape {
        }
      }
    }
  }
  attr {
    key: "dtype"
    value {
      type: DT_FLOAT
    }
  }
  attr {
    key: "value"
    value {
      tensor {
        dtype: DT_FLOAT
        tensor_shape {
        }
        float_val: 0.10000000149011612
      }
    }
  }
}
node {
  name: "generator/encoder_2/batch_normalization/AssignMovingAvg/sub/x"
  op: "Const"
  attr {
    key: "_class"
    value {
      list {
        s: "loc:@generator/encoder_2/batch_normalization/moving_mean"
      }
    }
  }
  attr {
    key: "_output_shapes"
    value {
      list {
        shape {
        }
      }
    }
  }
  attr {
    key: "dtype"
    value {
      type: DT_FLOAT
    }
  }
  attr {
    key: "value"
    value {
      tensor {
        dtype: DT_FLOAT
        tensor_shape {
        }
        float_val: 1.0
      }
    }
  }
}
node {
  name: "generator/encoder_2/batch_normalization/AssignMovingAvg/sub"
  op: "Sub"
  input: "generator/encoder_2/batch_normalization/AssignMovingAvg/sub/x"
  input: "generator/encoder_2/batch_normalization/Const"
  attr {
    key: "T"
    value {
      type: DT_FLOAT
    }
  }
  attr {
    key: "_class"
    value {
      list {
        s: "loc:@generator/encoder_2/batch_normalization/moving_mean"
      }
    }
  }
  attr {
    key: "_output_shapes"
    value {
      list {
        shape {
        }
      }
    }
  }
}
node {
  name: "generator/encoder_2/batch_normalization/AssignMovingAvg/ReadVariableOp"
  op: "ReadVariableOp"
  input: "generator/encoder_2/batch_normalization/moving_mean"
  attr {
    key: "_output_shapes"
    value {
      list {
        shape {
          dim {
            size: 128
          }
        }
      }
    }
  }
  attr {
    key: "dtype"
    value {
      type: DT_FLOAT
    }
  }
}
node {
  name: "generator/encoder_2/batch_normalization/AssignMovingAvg/sub_1"
  op: "Sub"
  input: "generator/encoder_2/batch_normalization/AssignMovingAvg/ReadVariableOp"
  input: "generator/encoder_2/batch_normalization/FusedBatchNormV3:1"
  attr {
    key: "T"
    value {
      type: DT_FLOAT
    }
  }
  attr {
    key: "_class"
    value {
      list {
        s: "loc:@generator/encoder_2/batch_normalization/moving_mean"
      }
    }
  }
  attr {
    key: "_output_shapes"
    value {
      list {
        shape {
          dim {
            size: 128
          }
        }
      }
    }
  }
}
node {
  name: "generator/encoder_2/batch_normalization/AssignMovingAvg/mul"
  op: "Mul"
  input: "generator/encoder_2/batch_normalization/AssignMovingAvg/sub_1"
  input: "generator/encoder_2/batch_normalization/AssignMovingAvg/sub"
  attr {
    key: "T"
    value {
      type: DT_FLOAT
    }
  }
  attr {
    key: "_class"
    value {
      list {
        s: "loc:@generator/encoder_2/batch_normalization/moving_mean"
      }
    }
  }
  attr {
    key: "_output_shapes"
    value {
      list {
        shape {
          dim {
            size: 128
          }
        }
      }
    }
  }
}
node {
  name: "generator/encoder_2/batch_normalization/AssignMovingAvg/AssignSubVariableOp"
  op: "AssignSubVariableOp"
  input: "generator/encoder_2/batch_normalization/moving_mean"
  input: "generator/encoder_2/batch_normalization/AssignMovingAvg/mul"
  attr {
    key: "_class"
    value {
      list {
        s: "loc:@generator/encoder_2/batch_normalization/moving_mean"
      }
    }
  }
  attr {
    key: "dtype"
    value {
      type: DT_FLOAT
    }
  }
}
node {
  name: "generator/encoder_2/batch_normalization/AssignMovingAvg/ReadVariableOp_1"
  op: "ReadVariableOp"
  input: "generator/encoder_2/batch_normalization/moving_mean"
  input: "^generator/encoder_2/batch_normalization/AssignMovingAvg/AssignSubVariableOp"
  attr {
    key: "_class"
    value {
      list {
        s: "loc:@generator/encoder_2/batch_normalization/moving_mean"
      }
    }
  }
  attr {
    key: "_output_shapes"
    value {
      list {
        shape {
          dim {
            size: 128
          }
        }
      }
    }
  }
  attr {
    key: "dtype"
    value {
      type: DT_FLOAT
    }
  }
}
node {
  name: "generator/encoder_2/batch_normalization/AssignMovingAvg_1/sub/x"
  op: "Const"
  attr {
    key: "_class"
    value {
      list {
        s: "loc:@generator/encoder_2/batch_normalization/moving_variance"
      }
    }
  }
  attr {
    key: "_output_shapes"
    value {
      list {
        shape {
        }
      }
    }
  }
  attr {
    key: "dtype"
    value {
      type: DT_FLOAT
    }
  }
  attr {
    key: "value"
    value {
      tensor {
        dtype: DT_FLOAT
        tensor_shape {
        }
        float_val: 1.0
      }
    }
  }
}
node {
  name: "generator/encoder_2/batch_normalization/AssignMovingAvg_1/sub"
  op: "Sub"
  input: "generator/encoder_2/batch_normalization/AssignMovingAvg_1/sub/x"
  input: "generator/encoder_2/batch_normalization/Const"
  attr {
    key: "T"
    value {
      type: DT_FLOAT
    }
  }
  attr {
    key: "_class"
    value {
      list {
        s: "loc:@generator/encoder_2/batch_normalization/moving_variance"
      }
    }
  }
  attr {
    key: "_output_shapes"
    value {
      list {
        shape {
        }
      }
    }
  }
}
node {
  name: "generator/encoder_2/batch_normalization/AssignMovingAvg_1/ReadVariableOp"
  op: "ReadVariableOp"
  input: "generator/encoder_2/batch_normalization/moving_variance"
  attr {
    key: "_output_shapes"
    value {
      list {
        shape {
          dim {
            size: 128
          }
        }
      }
    }
  }
  attr {
    key: "dtype"
    value {
      type: DT_FLOAT
    }
  }
}
node {
  name: "generator/encoder_2/batch_normalization/AssignMovingAvg_1/sub_1"
  op: "Sub"
  input: "generator/encoder_2/batch_normalization/AssignMovingAvg_1/ReadVariableOp"
  input: "generator/encoder_2/batch_normalization/FusedBatchNormV3:2"
  attr {
    key: "T"
    value {
      type: DT_FLOAT
    }
  }
  attr {
    key: "_class"
    value {
      list {
        s: "loc:@generator/encoder_2/batch_normalization/moving_variance"
      }
    }
  }
  attr {
    key: "_output_shapes"
    value {
      list {
        shape {
          dim {
            size: 128
          }
        }
      }
    }
  }
}
node {
  name: "generator/encoder_2/batch_normalization/AssignMovingAvg_1/mul"
  op: "Mul"
  input: "generator/encoder_2/batch_normalization/AssignMovingAvg_1/sub_1"
  input: "generator/encoder_2/batch_normalization/AssignMovingAvg_1/sub"
  attr {
    key: "T"
    value {
      type: DT_FLOAT
    }
  }
  attr {
    key: "_class"
    value {
      list {
        s: "loc:@generator/encoder_2/batch_normalization/moving_variance"
      }
    }
  }
  attr {
    key: "_output_shapes"
    value {
      list {
        shape {
          dim {
            size: 128
          }
        }
      }
    }
  }
}
node {
  name: "generator/encoder_2/batch_normalization/AssignMovingAvg_1/AssignSubVariableOp"
  op: "AssignSubVariableOp"
  input: "generator/encoder_2/batch_normalization/moving_variance"
  input: "generator/encoder_2/batch_normalization/AssignMovingAvg_1/mul"
  attr {
    key: "_class"
    value {
      list {
        s: "loc:@generator/encoder_2/batch_normalization/moving_variance"
      }
    }
  }
  attr {
    key: "dtype"
    value {
      type: DT_FLOAT
    }
  }
}
node {
  name: "generator/encoder_2/batch_normalization/AssignMovingAvg_1/ReadVariableOp_1"
  op: "ReadVariableOp"
  input: "generator/encoder_2/batch_normalization/moving_variance"
  input: "^generator/encoder_2/batch_normalization/AssignMovingAvg_1/AssignSubVariableOp"
  attr {
    key: "_class"
    value {
      list {
        s: "loc:@generator/encoder_2/batch_normalization/moving_variance"
      }
    }
  }
  attr {
    key: "_output_shapes"
    value {
      list {
        shape {
          dim {
            size: 128
          }
        }
      }
    }
  }
  attr {
    key: "dtype"
    value {
      type: DT_FLOAT
    }
  }
}
node {
  name: "generator/encoder_3/lrelu/Identity"
  op: "Identity"
  input: "generator/encoder_2/batch_normalization/FusedBatchNormV3"
  attr {
    key: "T"
    value {
      type: DT_FLOAT
    }
  }
  attr {
    key: "_output_shapes"
    value {
      list {
        shape {
          dim {
            size: 1
          }
          dim {
            size: 64
          }
          dim {
            size: 64
          }
          dim {
            size: 128
          }
        }
      }
    }
  }
}
node {
  name: "generator/encoder_3/lrelu/mul/x"
  op: "Const"
  attr {
    key: "_output_shapes"
    value {
      list {
        shape {
        }
      }
    }
  }
  attr {
    key: "dtype"
    value {
      type: DT_FLOAT
    }
  }
  attr {
    key: "value"
    value {
      tensor {
        dtype: DT_FLOAT
        tensor_shape {
        }
        float_val: 0.6000000238418579
      }
    }
  }
}
node {
  name: "generator/encoder_3/lrelu/mul"
  op: "Mul"
  input: "generator/encoder_3/lrelu/mul/x"
  input: "generator/encoder_3/lrelu/Identity"
  attr {
    key: "T"
    value {
      type: DT_FLOAT
    }
  }
  attr {
    key: "_output_shapes"
    value {
      list {
        shape {
          dim {
            size: 1
          }
          dim {
            size: 64
          }
          dim {
            size: 64
          }
          dim {
            size: 128
          }
        }
      }
    }
  }
}
node {
  name: "generator/encoder_3/lrelu/Abs"
  op: "Abs"
  input: "generator/encoder_3/lrelu/Identity"
  attr {
    key: "T"
    value {
      type: DT_FLOAT
    }
  }
  attr {
    key: "_output_shapes"
    value {
      list {
        shape {
          dim {
            size: 1
          }
          dim {
            size: 64
          }
          dim {
            size: 64
          }
          dim {
            size: 128
          }
        }
      }
    }
  }
}
node {
  name: "generator/encoder_3/lrelu/mul_1/x"
  op: "Const"
  attr {
    key: "_output_shapes"
    value {
      list {
        shape {
        }
      }
    }
  }
  attr {
    key: "dtype"
    value {
      type: DT_FLOAT
    }
  }
  attr {
    key: "value"
    value {
      tensor {
        dtype: DT_FLOAT
        tensor_shape {
        }
        float_val: 0.4000000059604645
      }
    }
  }
}
node {
  name: "generator/encoder_3/lrelu/mul_1"
  op: "Mul"
  input: "generator/encoder_3/lrelu/mul_1/x"
  input: "generator/encoder_3/lrelu/Abs"
  attr {
    key: "T"
    value {
      type: DT_FLOAT
    }
  }
  attr {
    key: "_output_shapes"
    value {
      list {
        shape {
          dim {
            size: 1
          }
          dim {
            size: 64
          }
          dim {
            size: 64
          }
          dim {
            size: 128
          }
        }
      }
    }
  }
}
node {
  name: "generator/encoder_3/lrelu/add"
  op: "AddV2"
  input: "generator/encoder_3/lrelu/mul"
  input: "generator/encoder_3/lrelu/mul_1"
  attr {
    key: "T"
    value {
      type: DT_FLOAT
    }
  }
  attr {
    key: "_output_shapes"
    value {
      list {
        shape {
          dim {
            size: 1
          }
          dim {
            size: 64
          }
          dim {
            size: 64
          }
          dim {
            size: 128
          }
        }
      }
    }
  }
}
node {
  name: "generator/encoder_3/conv2d/kernel/Initializer/random_normal/shape"
  op: "Const"
  attr {
    key: "_class"
    value {
      list {
        s: "loc:@generator/encoder_3/conv2d/kernel"
      }
    }
  }
  attr {
    key: "_output_shapes"
    value {
      list {
        shape {
          dim {
            size: 4
          }
        }
      }
    }
  }
  attr {
    key: "dtype"
    value {
      type: DT_INT32
    }
  }
  attr {
    key: "value"
    value {
      tensor {
        dtype: DT_INT32
        tensor_shape {
          dim {
            size: 4
          }
        }
        tensor_content: "\004\000\000\000\004\000\000\000\200\000\000\000\000\001\000\000"
      }
    }
  }
}
node {
  name: "generator/encoder_3/conv2d/kernel/Initializer/random_normal/mean"
  op: "Const"
  attr {
    key: "_class"
    value {
      list {
        s: "loc:@generator/encoder_3/conv2d/kernel"
      }
    }
  }
  attr {
    key: "_output_shapes"
    value {
      list {
        shape {
        }
      }
    }
  }
  attr {
    key: "dtype"
    value {
      type: DT_FLOAT
    }
  }
  attr {
    key: "value"
    value {
      tensor {
        dtype: DT_FLOAT
        tensor_shape {
        }
        float_val: 0.0
      }
    }
  }
}
node {
  name: "generator/encoder_3/conv2d/kernel/Initializer/random_normal/stddev"
  op: "Const"
  attr {
    key: "_class"
    value {
      list {
        s: "loc:@generator/encoder_3/conv2d/kernel"
      }
    }
  }
  attr {
    key: "_output_shapes"
    value {
      list {
        shape {
        }
      }
    }
  }
  attr {
    key: "dtype"
    value {
      type: DT_FLOAT
    }
  }
  attr {
    key: "value"
    value {
      tensor {
        dtype: DT_FLOAT
        tensor_shape {
        }
        float_val: 0.019999999552965164
      }
    }
  }
}
node {
  name: "generator/encoder_3/conv2d/kernel/Initializer/random_normal/RandomStandardNormal"
  op: "RandomStandardNormal"
  input: "generator/encoder_3/conv2d/kernel/Initializer/random_normal/shape"
  attr {
    key: "T"
    value {
      type: DT_INT32
    }
  }
  attr {
    key: "_class"
    value {
      list {
        s: "loc:@generator/encoder_3/conv2d/kernel"
      }
    }
  }
  attr {
    key: "_output_shapes"
    value {
      list {
        shape {
          dim {
            size: 4
          }
          dim {
            size: 4
          }
          dim {
            size: 128
          }
          dim {
            size: 256
          }
        }
      }
    }
  }
  attr {
    key: "dtype"
    value {
      type: DT_FLOAT
    }
  }
  attr {
    key: "seed"
    value {
      i: 2122079
    }
  }
  attr {
    key: "seed2"
    value {
      i: 3
    }
  }
}
node {
  name: "generator/encoder_3/conv2d/kernel/Initializer/random_normal/mul"
  op: "Mul"
  input: "generator/encoder_3/conv2d/kernel/Initializer/random_normal/RandomStandardNormal"
  input: "generator/encoder_3/conv2d/kernel/Initializer/random_normal/stddev"
  attr {
    key: "T"
    value {
      type: DT_FLOAT
    }
  }
  attr {
    key: "_class"
    value {
      list {
        s: "loc:@generator/encoder_3/conv2d/kernel"
      }
    }
  }
  attr {
    key: "_output_shapes"
    value {
      list {
        shape {
          dim {
            size: 4
          }
          dim {
            size: 4
          }
          dim {
            size: 128
          }
          dim {
            size: 256
          }
        }
      }
    }
  }
}
node {
  name: "generator/encoder_3/conv2d/kernel/Initializer/random_normal"
  op: "AddV2"
  input: "generator/encoder_3/conv2d/kernel/Initializer/random_normal/mul"
  input: "generator/encoder_3/conv2d/kernel/Initializer/random_normal/mean"
  attr {
    key: "T"
    value {
      type: DT_FLOAT
    }
  }
  attr {
    key: "_class"
    value {
      list {
        s: "loc:@generator/encoder_3/conv2d/kernel"
      }
    }
  }
  attr {
    key: "_output_shapes"
    value {
      list {
        shape {
          dim {
            size: 4
          }
          dim {
            size: 4
          }
          dim {
            size: 128
          }
          dim {
            size: 256
          }
        }
      }
    }
  }
}
node {
  name: "generator/encoder_3/conv2d/kernel"
  op: "VarHandleOp"
  attr {
    key: "_class"
    value {
      list {
        s: "loc:@generator/encoder_3/conv2d/kernel"
      }
    }
  }
  attr {
    key: "_output_shapes"
    value {
      list {
        shape {
        }
      }
    }
  }
  attr {
    key: "allowed_devices"
    value {
      list {
      }
    }
  }
  attr {
    key: "container"
    value {
      s: ""
    }
  }
  attr {
    key: "dtype"
    value {
      type: DT_FLOAT
    }
  }
  attr {
    key: "shape"
    value {
      shape {
        dim {
          size: 4
        }
        dim {
          size: 4
        }
        dim {
          size: 128
        }
        dim {
          size: 256
        }
      }
    }
  }
  attr {
    key: "shared_name"
    value {
      s: "generator/encoder_3/conv2d/kernel"
    }
  }
}
node {
  name: "generator/encoder_3/conv2d/kernel/IsInitialized/VarIsInitializedOp"
  op: "VarIsInitializedOp"
  input: "generator/encoder_3/conv2d/kernel"
  attr {
    key: "_output_shapes"
    value {
      list {
        shape {
        }
      }
    }
  }
}
node {
  name: "generator/encoder_3/conv2d/kernel/Assign"
  op: "AssignVariableOp"
  input: "generator/encoder_3/conv2d/kernel"
  input: "generator/encoder_3/conv2d/kernel/Initializer/random_normal"
  attr {
    key: "dtype"
    value {
      type: DT_FLOAT
    }
  }
  attr {
    key: "validate_shape"
    value {
      b: false
    }
  }
}
node {
  name: "generator/encoder_3/conv2d/kernel/Read/ReadVariableOp"
  op: "ReadVariableOp"
  input: "generator/encoder_3/conv2d/kernel"
  attr {
    key: "_output_shapes"
    value {
      list {
        shape {
          dim {
            size: 4
          }
          dim {
            size: 4
          }
          dim {
            size: 128
          }
          dim {
            size: 256
          }
        }
      }
    }
  }
  attr {
    key: "dtype"
    value {
      type: DT_FLOAT
    }
  }
}
node {
  name: "generator/encoder_3/conv2d/bias/Initializer/zeros"
  op: "Const"
  attr {
    key: "_class"
    value {
      list {
        s: "loc:@generator/encoder_3/conv2d/bias"
      }
    }
  }
  attr {
    key: "_output_shapes"
    value {
      list {
        shape {
          dim {
            size: 256
          }
        }
      }
    }
  }
  attr {
    key: "dtype"
    value {
      type: DT_FLOAT
    }
  }
  attr {
    key: "value"
    value {
      tensor {
        dtype: DT_FLOAT
        tensor_shape {
          dim {
            size: 256
          }
        }
        float_val: 0.0
      }
    }
  }
}
node {
  name: "generator/encoder_3/conv2d/bias"
  op: "VarHandleOp"
  attr {
    key: "_class"
    value {
      list {
        s: "loc:@generator/encoder_3/conv2d/bias"
      }
    }
  }
  attr {
    key: "_output_shapes"
    value {
      list {
        shape {
        }
      }
    }
  }
  attr {
    key: "allowed_devices"
    value {
      list {
      }
    }
  }
  attr {
    key: "container"
    value {
      s: ""
    }
  }
  attr {
    key: "dtype"
    value {
      type: DT_FLOAT
    }
  }
  attr {
    key: "shape"
    value {
      shape {
        dim {
          size: 256
        }
      }
    }
  }
  attr {
    key: "shared_name"
    value {
      s: "generator/encoder_3/conv2d/bias"
    }
  }
}
node {
  name: "generator/encoder_3/conv2d/bias/IsInitialized/VarIsInitializedOp"
  op: "VarIsInitializedOp"
  input: "generator/encoder_3/conv2d/bias"
  attr {
    key: "_output_shapes"
    value {
      list {
        shape {
        }
      }
    }
  }
}
node {
  name: "generator/encoder_3/conv2d/bias/Assign"
  op: "AssignVariableOp"
  input: "generator/encoder_3/conv2d/bias"
  input: "generator/encoder_3/conv2d/bias/Initializer/zeros"
  attr {
    key: "dtype"
    value {
      type: DT_FLOAT
    }
  }
  attr {
    key: "validate_shape"
    value {
      b: false
    }
  }
}
node {
  name: "generator/encoder_3/conv2d/bias/Read/ReadVariableOp"
  op: "ReadVariableOp"
  input: "generator/encoder_3/conv2d/bias"
  attr {
    key: "_output_shapes"
    value {
      list {
        shape {
          dim {
            size: 256
          }
        }
      }
    }
  }
  attr {
    key: "dtype"
    value {
      type: DT_FLOAT
    }
  }
}
node {
  name: "generator/encoder_3/conv2d/Conv2D/ReadVariableOp"
  op: "ReadVariableOp"
  input: "generator/encoder_3/conv2d/kernel"
  attr {
    key: "_output_shapes"
    value {
      list {
        shape {
          dim {
            size: 4
          }
          dim {
            size: 4
          }
          dim {
            size: 128
          }
          dim {
            size: 256
          }
        }
      }
    }
  }
  attr {
    key: "dtype"
    value {
      type: DT_FLOAT
    }
  }
}
node {
  name: "generator/encoder_3/conv2d/Conv2D"
  op: "Conv2D"
  input: "generator/encoder_3/lrelu/add"
  input: "generator/encoder_3/conv2d/Conv2D/ReadVariableOp"
  attr {
    key: "T"
    value {
      type: DT_FLOAT
    }
  }
  attr {
    key: "_output_shapes"
    value {
      list {
        shape {
          dim {
            size: 1
          }
          dim {
            size: 32
          }
          dim {
            size: 32
          }
          dim {
            size: 256
          }
        }
      }
    }
  }
  attr {
    key: "data_format"
    value {
      s: "NHWC"
    }
  }
  attr {
    key: "dilations"
    value {
      list {
        i: 1
        i: 1
        i: 1
        i: 1
      }
    }
  }
  attr {
    key: "explicit_paddings"
    value {
      list {
      }
    }
  }
  attr {
    key: "padding"
    value {
      s: "SAME"
    }
  }
  attr {
    key: "strides"
    value {
      list {
        i: 1
        i: 2
        i: 2
        i: 1
      }
    }
  }
  attr {
    key: "use_cudnn_on_gpu"
    value {
      b: true
    }
  }
}
node {
  name: "generator/encoder_3/conv2d/BiasAdd/ReadVariableOp"
  op: "ReadVariableOp"
  input: "generator/encoder_3/conv2d/bias"
  attr {
    key: "_output_shapes"
    value {
      list {
        shape {
          dim {
            size: 256
          }
        }
      }
    }
  }
  attr {
    key: "dtype"
    value {
      type: DT_FLOAT
    }
  }
}
node {
  name: "generator/encoder_3/conv2d/BiasAdd"
  op: "BiasAdd"
  input: "generator/encoder_3/conv2d/Conv2D"
  input: "generator/encoder_3/conv2d/BiasAdd/ReadVariableOp"
  attr {
    key: "T"
    value {
      type: DT_FLOAT
    }
  }
  attr {
    key: "_output_shapes"
    value {
      list {
        shape {
          dim {
            size: 1
          }
          dim {
            size: 32
          }
          dim {
            size: 32
          }
          dim {
            size: 256
          }
        }
      }
    }
  }
  attr {
    key: "data_format"
    value {
      s: "NHWC"
    }
  }
}
node {
  name: "generator/encoder_3/batch_normalization/gamma/Initializer/random_normal/shape"
  op: "Const"
  attr {
    key: "_class"
    value {
      list {
        s: "loc:@generator/encoder_3/batch_normalization/gamma"
      }
    }
  }
  attr {
    key: "_output_shapes"
    value {
      list {
        shape {
          dim {
            size: 1
          }
        }
      }
    }
  }
  attr {
    key: "dtype"
    value {
      type: DT_INT32
    }
  }
  attr {
    key: "value"
    value {
      tensor {
        dtype: DT_INT32
        tensor_shape {
          dim {
            size: 1
          }
        }
        int_val: 256
      }
    }
  }
}
node {
  name: "generator/encoder_3/batch_normalization/gamma/Initializer/random_normal/mean"
  op: "Const"
  attr {
    key: "_class"
    value {
      list {
        s: "loc:@generator/encoder_3/batch_normalization/gamma"
      }
    }
  }
  attr {
    key: "_output_shapes"
    value {
      list {
        shape {
        }
      }
    }
  }
  attr {
    key: "dtype"
    value {
      type: DT_FLOAT
    }
  }
  attr {
    key: "value"
    value {
      tensor {
        dtype: DT_FLOAT
        tensor_shape {
        }
        float_val: 1.0
      }
    }
  }
}
node {
  name: "generator/encoder_3/batch_normalization/gamma/Initializer/random_normal/stddev"
  op: "Const"
  attr {
    key: "_class"
    value {
      list {
        s: "loc:@generator/encoder_3/batch_normalization/gamma"
      }
    }
  }
  attr {
    key: "_output_shapes"
    value {
      list {
        shape {
        }
      }
    }
  }
  attr {
    key: "dtype"
    value {
      type: DT_FLOAT
    }
  }
  attr {
    key: "value"
    value {
      tensor {
        dtype: DT_FLOAT
        tensor_shape {
        }
        float_val: 0.019999999552965164
      }
    }
  }
}
node {
  name: "generator/encoder_3/batch_normalization/gamma/Initializer/random_normal/RandomStandardNormal"
  op: "RandomStandardNormal"
  input: "generator/encoder_3/batch_normalization/gamma/Initializer/random_normal/shape"
  attr {
    key: "T"
    value {
      type: DT_INT32
    }
  }
  attr {
    key: "_class"
    value {
      list {
        s: "loc:@generator/encoder_3/batch_normalization/gamma"
      }
    }
  }
  attr {
    key: "_output_shapes"
    value {
      list {
        shape {
          dim {
            size: 256
          }
        }
      }
    }
  }
  attr {
    key: "dtype"
    value {
      type: DT_FLOAT
    }
  }
  attr {
    key: "seed"
    value {
      i: 2122079
    }
  }
  attr {
    key: "seed2"
    value {
      i: 4
    }
  }
}
node {
  name: "generator/encoder_3/batch_normalization/gamma/Initializer/random_normal/mul"
  op: "Mul"
  input: "generator/encoder_3/batch_normalization/gamma/Initializer/random_normal/RandomStandardNormal"
  input: "generator/encoder_3/batch_normalization/gamma/Initializer/random_normal/stddev"
  attr {
    key: "T"
    value {
      type: DT_FLOAT
    }
  }
  attr {
    key: "_class"
    value {
      list {
        s: "loc:@generator/encoder_3/batch_normalization/gamma"
      }
    }
  }
  attr {
    key: "_output_shapes"
    value {
      list {
        shape {
          dim {
            size: 256
          }
        }
      }
    }
  }
}
node {
  name: "generator/encoder_3/batch_normalization/gamma/Initializer/random_normal"
  op: "AddV2"
  input: "generator/encoder_3/batch_normalization/gamma/Initializer/random_normal/mul"
  input: "generator/encoder_3/batch_normalization/gamma/Initializer/random_normal/mean"
  attr {
    key: "T"
    value {
      type: DT_FLOAT
    }
  }
  attr {
    key: "_class"
    value {
      list {
        s: "loc:@generator/encoder_3/batch_normalization/gamma"
      }
    }
  }
  attr {
    key: "_output_shapes"
    value {
      list {
        shape {
          dim {
            size: 256
          }
        }
      }
    }
  }
}
node {
  name: "generator/encoder_3/batch_normalization/gamma"
  op: "VarHandleOp"
  attr {
    key: "_class"
    value {
      list {
        s: "loc:@generator/encoder_3/batch_normalization/gamma"
      }
    }
  }
  attr {
    key: "_output_shapes"
    value {
      list {
        shape {
        }
      }
    }
  }
  attr {
    key: "allowed_devices"
    value {
      list {
      }
    }
  }
  attr {
    key: "container"
    value {
      s: ""
    }
  }
  attr {
    key: "dtype"
    value {
      type: DT_FLOAT
    }
  }
  attr {
    key: "shape"
    value {
      shape {
        dim {
          size: 256
        }
      }
    }
  }
  attr {
    key: "shared_name"
    value {
      s: "generator/encoder_3/batch_normalization/gamma"
    }
  }
}
node {
  name: "generator/encoder_3/batch_normalization/gamma/IsInitialized/VarIsInitializedOp"
  op: "VarIsInitializedOp"
  input: "generator/encoder_3/batch_normalization/gamma"
  attr {
    key: "_output_shapes"
    value {
      list {
        shape {
        }
      }
    }
  }
}
node {
  name: "generator/encoder_3/batch_normalization/gamma/Assign"
  op: "AssignVariableOp"
  input: "generator/encoder_3/batch_normalization/gamma"
  input: "generator/encoder_3/batch_normalization/gamma/Initializer/random_normal"
  attr {
    key: "dtype"
    value {
      type: DT_FLOAT
    }
  }
  attr {
    key: "validate_shape"
    value {
      b: false
    }
  }
}
node {
  name: "generator/encoder_3/batch_normalization/gamma/Read/ReadVariableOp"
  op: "ReadVariableOp"
  input: "generator/encoder_3/batch_normalization/gamma"
  attr {
    key: "_output_shapes"
    value {
      list {
        shape {
          dim {
            size: 256
          }
        }
      }
    }
  }
  attr {
    key: "dtype"
    value {
      type: DT_FLOAT
    }
  }
}
node {
  name: "generator/encoder_3/batch_normalization/beta/Initializer/zeros"
  op: "Const"
  attr {
    key: "_class"
    value {
      list {
        s: "loc:@generator/encoder_3/batch_normalization/beta"
      }
    }
  }
  attr {
    key: "_output_shapes"
    value {
      list {
        shape {
          dim {
            size: 256
          }
        }
      }
    }
  }
  attr {
    key: "dtype"
    value {
      type: DT_FLOAT
    }
  }
  attr {
    key: "value"
    value {
      tensor {
        dtype: DT_FLOAT
        tensor_shape {
          dim {
            size: 256
          }
        }
        float_val: 0.0
      }
    }
  }
}
node {
  name: "generator/encoder_3/batch_normalization/beta"
  op: "VarHandleOp"
  attr {
    key: "_class"
    value {
      list {
        s: "loc:@generator/encoder_3/batch_normalization/beta"
      }
    }
  }
  attr {
    key: "_output_shapes"
    value {
      list {
        shape {
        }
      }
    }
  }
  attr {
    key: "allowed_devices"
    value {
      list {
      }
    }
  }
  attr {
    key: "container"
    value {
      s: ""
    }
  }
  attr {
    key: "dtype"
    value {
      type: DT_FLOAT
    }
  }
  attr {
    key: "shape"
    value {
      shape {
        dim {
          size: 256
        }
      }
    }
  }
  attr {
    key: "shared_name"
    value {
      s: "generator/encoder_3/batch_normalization/beta"
    }
  }
}
node {
  name: "generator/encoder_3/batch_normalization/beta/IsInitialized/VarIsInitializedOp"
  op: "VarIsInitializedOp"
  input: "generator/encoder_3/batch_normalization/beta"
  attr {
    key: "_output_shapes"
    value {
      list {
        shape {
        }
      }
    }
  }
}
node {
  name: "generator/encoder_3/batch_normalization/beta/Assign"
  op: "AssignVariableOp"
  input: "generator/encoder_3/batch_normalization/beta"
  input: "generator/encoder_3/batch_normalization/beta/Initializer/zeros"
  attr {
    key: "dtype"
    value {
      type: DT_FLOAT
    }
  }
  attr {
    key: "validate_shape"
    value {
      b: false
    }
  }
}
node {
  name: "generator/encoder_3/batch_normalization/beta/Read/ReadVariableOp"
  op: "ReadVariableOp"
  input: "generator/encoder_3/batch_normalization/beta"
  attr {
    key: "_output_shapes"
    value {
      list {
        shape {
          dim {
            size: 256
          }
        }
      }
    }
  }
  attr {
    key: "dtype"
    value {
      type: DT_FLOAT
    }
  }
}
node {
  name: "generator/encoder_3/batch_normalization/moving_mean/Initializer/zeros"
  op: "Const"
  attr {
    key: "_class"
    value {
      list {
        s: "loc:@generator/encoder_3/batch_normalization/moving_mean"
      }
    }
  }
  attr {
    key: "_output_shapes"
    value {
      list {
        shape {
          dim {
            size: 256
          }
        }
      }
    }
  }
  attr {
    key: "dtype"
    value {
      type: DT_FLOAT
    }
  }
  attr {
    key: "value"
    value {
      tensor {
        dtype: DT_FLOAT
        tensor_shape {
          dim {
            size: 256
          }
        }
        float_val: 0.0
      }
    }
  }
}
node {
  name: "generator/encoder_3/batch_normalization/moving_mean"
  op: "VarHandleOp"
  attr {
    key: "_class"
    value {
      list {
        s: "loc:@generator/encoder_3/batch_normalization/moving_mean"
      }
    }
  }
  attr {
    key: "_output_shapes"
    value {
      list {
        shape {
        }
      }
    }
  }
  attr {
    key: "allowed_devices"
    value {
      list {
      }
    }
  }
  attr {
    key: "container"
    value {
      s: ""
    }
  }
  attr {
    key: "dtype"
    value {
      type: DT_FLOAT
    }
  }
  attr {
    key: "shape"
    value {
      shape {
        dim {
          size: 256
        }
      }
    }
  }
  attr {
    key: "shared_name"
    value {
      s: "generator/encoder_3/batch_normalization/moving_mean"
    }
  }
}
node {
  name: "generator/encoder_3/batch_normalization/moving_mean/IsInitialized/VarIsInitializedOp"
  op: "VarIsInitializedOp"
  input: "generator/encoder_3/batch_normalization/moving_mean"
  attr {
    key: "_output_shapes"
    value {
      list {
        shape {
        }
      }
    }
  }
}
node {
  name: "generator/encoder_3/batch_normalization/moving_mean/Assign"
  op: "AssignVariableOp"
  input: "generator/encoder_3/batch_normalization/moving_mean"
  input: "generator/encoder_3/batch_normalization/moving_mean/Initializer/zeros"
  attr {
    key: "dtype"
    value {
      type: DT_FLOAT
    }
  }
  attr {
    key: "validate_shape"
    value {
      b: false
    }
  }
}
node {
  name: "generator/encoder_3/batch_normalization/moving_mean/Read/ReadVariableOp"
  op: "ReadVariableOp"
  input: "generator/encoder_3/batch_normalization/moving_mean"
  attr {
    key: "_output_shapes"
    value {
      list {
        shape {
          dim {
            size: 256
          }
        }
      }
    }
  }
  attr {
    key: "dtype"
    value {
      type: DT_FLOAT
    }
  }
}
node {
  name: "generator/encoder_3/batch_normalization/moving_variance/Initializer/ones"
  op: "Const"
  attr {
    key: "_class"
    value {
      list {
        s: "loc:@generator/encoder_3/batch_normalization/moving_variance"
      }
    }
  }
  attr {
    key: "_output_shapes"
    value {
      list {
        shape {
          dim {
            size: 256
          }
        }
      }
    }
  }
  attr {
    key: "dtype"
    value {
      type: DT_FLOAT
    }
  }
  attr {
    key: "value"
    value {
      tensor {
        dtype: DT_FLOAT
        tensor_shape {
          dim {
            size: 256
          }
        }
        float_val: 1.0
      }
    }
  }
}
node {
  name: "generator/encoder_3/batch_normalization/moving_variance"
  op: "VarHandleOp"
  attr {
    key: "_class"
    value {
      list {
        s: "loc:@generator/encoder_3/batch_normalization/moving_variance"
      }
    }
  }
  attr {
    key: "_output_shapes"
    value {
      list {
        shape {
        }
      }
    }
  }
  attr {
    key: "allowed_devices"
    value {
      list {
      }
    }
  }
  attr {
    key: "container"
    value {
      s: ""
    }
  }
  attr {
    key: "dtype"
    value {
      type: DT_FLOAT
    }
  }
  attr {
    key: "shape"
    value {
      shape {
        dim {
          size: 256
        }
      }
    }
  }
  attr {
    key: "shared_name"
    value {
      s: "generator/encoder_3/batch_normalization/moving_variance"
    }
  }
}
node {
  name: "generator/encoder_3/batch_normalization/moving_variance/IsInitialized/VarIsInitializedOp"
  op: "VarIsInitializedOp"
  input: "generator/encoder_3/batch_normalization/moving_variance"
  attr {
    key: "_output_shapes"
    value {
      list {
        shape {
        }
      }
    }
  }
}
node {
  name: "generator/encoder_3/batch_normalization/moving_variance/Assign"
  op: "AssignVariableOp"
  input: "generator/encoder_3/batch_normalization/moving_variance"
  input: "generator/encoder_3/batch_normalization/moving_variance/Initializer/ones"
  attr {
    key: "dtype"
    value {
      type: DT_FLOAT
    }
  }
  attr {
    key: "validate_shape"
    value {
      b: false
    }
  }
}
node {
  name: "generator/encoder_3/batch_normalization/moving_variance/Read/ReadVariableOp"
  op: "ReadVariableOp"
  input: "generator/encoder_3/batch_normalization/moving_variance"
  attr {
    key: "_output_shapes"
    value {
      list {
        shape {
          dim {
            size: 256
          }
        }
      }
    }
  }
  attr {
    key: "dtype"
    value {
      type: DT_FLOAT
    }
  }
}
node {
  name: "generator/encoder_3/batch_normalization/ReadVariableOp"
  op: "ReadVariableOp"
  input: "generator/encoder_3/batch_normalization/gamma"
  attr {
    key: "_output_shapes"
    value {
      list {
        shape {
          dim {
            size: 256
          }
        }
      }
    }
  }
  attr {
    key: "dtype"
    value {
      type: DT_FLOAT
    }
  }
}
node {
  name: "generator/encoder_3/batch_normalization/ReadVariableOp_1"
  op: "ReadVariableOp"
  input: "generator/encoder_3/batch_normalization/beta"
  attr {
    key: "_output_shapes"
    value {
      list {
        shape {
          dim {
            size: 256
          }
        }
      }
    }
  }
  attr {
    key: "dtype"
    value {
      type: DT_FLOAT
    }
  }
}
node {
  name: "generator/encoder_3/batch_normalization/FusedBatchNormV3/ReadVariableOp"
  op: "ReadVariableOp"
  input: "generator/encoder_3/batch_normalization/moving_mean"
  attr {
    key: "_output_shapes"
    value {
      list {
        shape {
          dim {
            size: 256
          }
        }
      }
    }
  }
  attr {
    key: "dtype"
    value {
      type: DT_FLOAT
    }
  }
}
node {
  name: "generator/encoder_3/batch_normalization/FusedBatchNormV3/ReadVariableOp_1"
  op: "ReadVariableOp"
  input: "generator/encoder_3/batch_normalization/moving_variance"
  attr {
    key: "_output_shapes"
    value {
      list {
        shape {
          dim {
            size: 256
          }
        }
      }
    }
  }
  attr {
    key: "dtype"
    value {
      type: DT_FLOAT
    }
  }
}
node {
  name: "generator/encoder_3/batch_normalization/FusedBatchNormV3"
  op: "FusedBatchNormV3"
  input: "generator/encoder_3/conv2d/BiasAdd"
  input: "generator/encoder_3/batch_normalization/ReadVariableOp"
  input: "generator/encoder_3/batch_normalization/ReadVariableOp_1"
  input: "generator/encoder_3/batch_normalization/FusedBatchNormV3/ReadVariableOp"
  input: "generator/encoder_3/batch_normalization/FusedBatchNormV3/ReadVariableOp_1"
  attr {
    key: "T"
    value {
      type: DT_FLOAT
    }
  }
  attr {
    key: "U"
    value {
      type: DT_FLOAT
    }
  }
  attr {
    key: "_output_shapes"
    value {
      list {
        shape {
          dim {
            size: 1
          }
          dim {
            size: 32
          }
          dim {
            size: 32
          }
          dim {
            size: 256
          }
        }
        shape {
          dim {
            size: 256
          }
        }
        shape {
          dim {
            size: 256
          }
        }
        shape {
          dim {
            size: 256
          }
        }
        shape {
          dim {
            size: 256
          }
        }
        shape {
          unknown_rank: true
        }
      }
    }
  }
  attr {
    key: "data_format"
    value {
      s: "NHWC"
    }
  }
  attr {
    key: "epsilon"
    value {
      f: 1.0009999641624745e-05
    }
  }
  attr {
    key: "exponential_avg_factor"
    value {
      f: 1.0
    }
  }
  attr {
    key: "is_training"
    value {
      b: true
    }
  }
}
node {
  name: "generator/encoder_3/batch_normalization/Const"
  op: "Const"
  attr {
    key: "_output_shapes"
    value {
      list {
        shape {
        }
      }
    }
  }
  attr {
    key: "dtype"
    value {
      type: DT_FLOAT
    }
  }
  attr {
    key: "value"
    value {
      tensor {
        dtype: DT_FLOAT
        tensor_shape {
        }
        float_val: 0.10000000149011612
      }
    }
  }
}
node {
  name: "generator/encoder_3/batch_normalization/AssignMovingAvg/sub/x"
  op: "Const"
  attr {
    key: "_class"
    value {
      list {
        s: "loc:@generator/encoder_3/batch_normalization/moving_mean"
      }
    }
  }
  attr {
    key: "_output_shapes"
    value {
      list {
        shape {
        }
      }
    }
  }
  attr {
    key: "dtype"
    value {
      type: DT_FLOAT
    }
  }
  attr {
    key: "value"
    value {
      tensor {
        dtype: DT_FLOAT
        tensor_shape {
        }
        float_val: 1.0
      }
    }
  }
}
node {
  name: "generator/encoder_3/batch_normalization/AssignMovingAvg/sub"
  op: "Sub"
  input: "generator/encoder_3/batch_normalization/AssignMovingAvg/sub/x"
  input: "generator/encoder_3/batch_normalization/Const"
  attr {
    key: "T"
    value {
      type: DT_FLOAT
    }
  }
  attr {
    key: "_class"
    value {
      list {
        s: "loc:@generator/encoder_3/batch_normalization/moving_mean"
      }
    }
  }
  attr {
    key: "_output_shapes"
    value {
      list {
        shape {
        }
      }
    }
  }
}
node {
  name: "generator/encoder_3/batch_normalization/AssignMovingAvg/ReadVariableOp"
  op: "ReadVariableOp"
  input: "generator/encoder_3/batch_normalization/moving_mean"
  attr {
    key: "_output_shapes"
    value {
      list {
        shape {
          dim {
            size: 256
          }
        }
      }
    }
  }
  attr {
    key: "dtype"
    value {
      type: DT_FLOAT
    }
  }
}
node {
  name: "generator/encoder_3/batch_normalization/AssignMovingAvg/sub_1"
  op: "Sub"
  input: "generator/encoder_3/batch_normalization/AssignMovingAvg/ReadVariableOp"
  input: "generator/encoder_3/batch_normalization/FusedBatchNormV3:1"
  attr {
    key: "T"
    value {
      type: DT_FLOAT
    }
  }
  attr {
    key: "_class"
    value {
      list {
        s: "loc:@generator/encoder_3/batch_normalization/moving_mean"
      }
    }
  }
  attr {
    key: "_output_shapes"
    value {
      list {
        shape {
          dim {
            size: 256
          }
        }
      }
    }
  }
}
node {
  name: "generator/encoder_3/batch_normalization/AssignMovingAvg/mul"
  op: "Mul"
  input: "generator/encoder_3/batch_normalization/AssignMovingAvg/sub_1"
  input: "generator/encoder_3/batch_normalization/AssignMovingAvg/sub"
  attr {
    key: "T"
    value {
      type: DT_FLOAT
    }
  }
  attr {
    key: "_class"
    value {
      list {
        s: "loc:@generator/encoder_3/batch_normalization/moving_mean"
      }
    }
  }
  attr {
    key: "_output_shapes"
    value {
      list {
        shape {
          dim {
            size: 256
          }
        }
      }
    }
  }
}
node {
  name: "generator/encoder_3/batch_normalization/AssignMovingAvg/AssignSubVariableOp"
  op: "AssignSubVariableOp"
  input: "generator/encoder_3/batch_normalization/moving_mean"
  input: "generator/encoder_3/batch_normalization/AssignMovingAvg/mul"
  attr {
    key: "_class"
    value {
      list {
        s: "loc:@generator/encoder_3/batch_normalization/moving_mean"
      }
    }
  }
  attr {
    key: "dtype"
    value {
      type: DT_FLOAT
    }
  }
}
node {
  name: "generator/encoder_3/batch_normalization/AssignMovingAvg/ReadVariableOp_1"
  op: "ReadVariableOp"
  input: "generator/encoder_3/batch_normalization/moving_mean"
  input: "^generator/encoder_3/batch_normalization/AssignMovingAvg/AssignSubVariableOp"
  attr {
    key: "_class"
    value {
      list {
        s: "loc:@generator/encoder_3/batch_normalization/moving_mean"
      }
    }
  }
  attr {
    key: "_output_shapes"
    value {
      list {
        shape {
          dim {
            size: 256
          }
        }
      }
    }
  }
  attr {
    key: "dtype"
    value {
      type: DT_FLOAT
    }
  }
}
node {
  name: "generator/encoder_3/batch_normalization/AssignMovingAvg_1/sub/x"
  op: "Const"
  attr {
    key: "_class"
    value {
      list {
        s: "loc:@generator/encoder_3/batch_normalization/moving_variance"
      }
    }
  }
  attr {
    key: "_output_shapes"
    value {
      list {
        shape {
        }
      }
    }
  }
  attr {
    key: "dtype"
    value {
      type: DT_FLOAT
    }
  }
  attr {
    key: "value"
    value {
      tensor {
        dtype: DT_FLOAT
        tensor_shape {
        }
        float_val: 1.0
      }
    }
  }
}
node {
  name: "generator/encoder_3/batch_normalization/AssignMovingAvg_1/sub"
  op: "Sub"
  input: "generator/encoder_3/batch_normalization/AssignMovingAvg_1/sub/x"
  input: "generator/encoder_3/batch_normalization/Const"
  attr {
    key: "T"
    value {
      type: DT_FLOAT
    }
  }
  attr {
    key: "_class"
    value {
      list {
        s: "loc:@generator/encoder_3/batch_normalization/moving_variance"
      }
    }
  }
  attr {
    key: "_output_shapes"
    value {
      list {
        shape {
        }
      }
    }
  }
}
node {
  name: "generator/encoder_3/batch_normalization/AssignMovingAvg_1/ReadVariableOp"
  op: "ReadVariableOp"
  input: "generator/encoder_3/batch_normalization/moving_variance"
  attr {
    key: "_output_shapes"
    value {
      list {
        shape {
          dim {
            size: 256
          }
        }
      }
    }
  }
  attr {
    key: "dtype"
    value {
      type: DT_FLOAT
    }
  }
}
node {
  name: "generator/encoder_3/batch_normalization/AssignMovingAvg_1/sub_1"
  op: "Sub"
  input: "generator/encoder_3/batch_normalization/AssignMovingAvg_1/ReadVariableOp"
  input: "generator/encoder_3/batch_normalization/FusedBatchNormV3:2"
  attr {
    key: "T"
    value {
      type: DT_FLOAT
    }
  }
  attr {
    key: "_class"
    value {
      list {
        s: "loc:@generator/encoder_3/batch_normalization/moving_variance"
      }
    }
  }
  attr {
    key: "_output_shapes"
    value {
      list {
        shape {
          dim {
            size: 256
          }
        }
      }
    }
  }
}
node {
  name: "generator/encoder_3/batch_normalization/AssignMovingAvg_1/mul"
  op: "Mul"
  input: "generator/encoder_3/batch_normalization/AssignMovingAvg_1/sub_1"
  input: "generator/encoder_3/batch_normalization/AssignMovingAvg_1/sub"
  attr {
    key: "T"
    value {
      type: DT_FLOAT
    }
  }
  attr {
    key: "_class"
    value {
      list {
        s: "loc:@generator/encoder_3/batch_normalization/moving_variance"
      }
    }
  }
  attr {
    key: "_output_shapes"
    value {
      list {
        shape {
          dim {
            size: 256
          }
        }
      }
    }
  }
}
node {
  name: "generator/encoder_3/batch_normalization/AssignMovingAvg_1/AssignSubVariableOp"
  op: "AssignSubVariableOp"
  input: "generator/encoder_3/batch_normalization/moving_variance"
  input: "generator/encoder_3/batch_normalization/AssignMovingAvg_1/mul"
  attr {
    key: "_class"
    value {
      list {
        s: "loc:@generator/encoder_3/batch_normalization/moving_variance"
      }
    }
  }
  attr {
    key: "dtype"
    value {
      type: DT_FLOAT
    }
  }
}
node {
  name: "generator/encoder_3/batch_normalization/AssignMovingAvg_1/ReadVariableOp_1"
  op: "ReadVariableOp"
  input: "generator/encoder_3/batch_normalization/moving_variance"
  input: "^generator/encoder_3/batch_normalization/AssignMovingAvg_1/AssignSubVariableOp"
  attr {
    key: "_class"
    value {
      list {
        s: "loc:@generator/encoder_3/batch_normalization/moving_variance"
      }
    }
  }
  attr {
    key: "_output_shapes"
    value {
      list {
        shape {
          dim {
            size: 256
          }
        }
      }
    }
  }
  attr {
    key: "dtype"
    value {
      type: DT_FLOAT
    }
  }
}
node {
  name: "generator/encoder_4/lrelu/Identity"
  op: "Identity"
  input: "generator/encoder_3/batch_normalization/FusedBatchNormV3"
  attr {
    key: "T"
    value {
      type: DT_FLOAT
    }
  }
  attr {
    key: "_output_shapes"
    value {
      list {
        shape {
          dim {
            size: 1
          }
          dim {
            size: 32
          }
          dim {
            size: 32
          }
          dim {
            size: 256
          }
        }
      }
    }
  }
}
node {
  name: "generator/encoder_4/lrelu/mul/x"
  op: "Const"
  attr {
    key: "_output_shapes"
    value {
      list {
        shape {
        }
      }
    }
  }
  attr {
    key: "dtype"
    value {
      type: DT_FLOAT
    }
  }
  attr {
    key: "value"
    value {
      tensor {
        dtype: DT_FLOAT
        tensor_shape {
        }
        float_val: 0.6000000238418579
      }
    }
  }
}
node {
  name: "generator/encoder_4/lrelu/mul"
  op: "Mul"
  input: "generator/encoder_4/lrelu/mul/x"
  input: "generator/encoder_4/lrelu/Identity"
  attr {
    key: "T"
    value {
      type: DT_FLOAT
    }
  }
  attr {
    key: "_output_shapes"
    value {
      list {
        shape {
          dim {
            size: 1
          }
          dim {
            size: 32
          }
          dim {
            size: 32
          }
          dim {
            size: 256
          }
        }
      }
    }
  }
}
node {
  name: "generator/encoder_4/lrelu/Abs"
  op: "Abs"
  input: "generator/encoder_4/lrelu/Identity"
  attr {
    key: "T"
    value {
      type: DT_FLOAT
    }
  }
  attr {
    key: "_output_shapes"
    value {
      list {
        shape {
          dim {
            size: 1
          }
          dim {
            size: 32
          }
          dim {
            size: 32
          }
          dim {
            size: 256
          }
        }
      }
    }
  }
}
node {
  name: "generator/encoder_4/lrelu/mul_1/x"
  op: "Const"
  attr {
    key: "_output_shapes"
    value {
      list {
        shape {
        }
      }
    }
  }
  attr {
    key: "dtype"
    value {
      type: DT_FLOAT
    }
  }
  attr {
    key: "value"
    value {
      tensor {
        dtype: DT_FLOAT
        tensor_shape {
        }
        float_val: 0.4000000059604645
      }
    }
  }
}
node {
  name: "generator/encoder_4/lrelu/mul_1"
  op: "Mul"
  input: "generator/encoder_4/lrelu/mul_1/x"
  input: "generator/encoder_4/lrelu/Abs"
  attr {
    key: "T"
    value {
      type: DT_FLOAT
    }
  }
  attr {
    key: "_output_shapes"
    value {
      list {
        shape {
          dim {
            size: 1
          }
          dim {
            size: 32
          }
          dim {
            size: 32
          }
          dim {
            size: 256
          }
        }
      }
    }
  }
}
node {
  name: "generator/encoder_4/lrelu/add"
  op: "AddV2"
  input: "generator/encoder_4/lrelu/mul"
  input: "generator/encoder_4/lrelu/mul_1"
  attr {
    key: "T"
    value {
      type: DT_FLOAT
    }
  }
  attr {
    key: "_output_shapes"
    value {
      list {
        shape {
          dim {
            size: 1
          }
          dim {
            size: 32
          }
          dim {
            size: 32
          }
          dim {
            size: 256
          }
        }
      }
    }
  }
}
node {
  name: "generator/encoder_4/conv2d/kernel/Initializer/random_normal/shape"
  op: "Const"
  attr {
    key: "_class"
    value {
      list {
        s: "loc:@generator/encoder_4/conv2d/kernel"
      }
    }
  }
  attr {
    key: "_output_shapes"
    value {
      list {
        shape {
          dim {
            size: 4
          }
        }
      }
    }
  }
  attr {
    key: "dtype"
    value {
      type: DT_INT32
    }
  }
  attr {
    key: "value"
    value {
      tensor {
        dtype: DT_INT32
        tensor_shape {
          dim {
            size: 4
          }
        }
        tensor_content: "\004\000\000\000\004\000\000\000\000\001\000\000\000\002\000\000"
      }
    }
  }
}
node {
  name: "generator/encoder_4/conv2d/kernel/Initializer/random_normal/mean"
  op: "Const"
  attr {
    key: "_class"
    value {
      list {
        s: "loc:@generator/encoder_4/conv2d/kernel"
      }
    }
  }
  attr {
    key: "_output_shapes"
    value {
      list {
        shape {
        }
      }
    }
  }
  attr {
    key: "dtype"
    value {
      type: DT_FLOAT
    }
  }
  attr {
    key: "value"
    value {
      tensor {
        dtype: DT_FLOAT
        tensor_shape {
        }
        float_val: 0.0
      }
    }
  }
}
node {
  name: "generator/encoder_4/conv2d/kernel/Initializer/random_normal/stddev"
  op: "Const"
  attr {
    key: "_class"
    value {
      list {
        s: "loc:@generator/encoder_4/conv2d/kernel"
      }
    }
  }
  attr {
    key: "_output_shapes"
    value {
      list {
        shape {
        }
      }
    }
  }
  attr {
    key: "dtype"
    value {
      type: DT_FLOAT
    }
  }
  attr {
    key: "value"
    value {
      tensor {
        dtype: DT_FLOAT
        tensor_shape {
        }
        float_val: 0.019999999552965164
      }
    }
  }
}
node {
  name: "generator/encoder_4/conv2d/kernel/Initializer/random_normal/RandomStandardNormal"
  op: "RandomStandardNormal"
  input: "generator/encoder_4/conv2d/kernel/Initializer/random_normal/shape"
  attr {
    key: "T"
    value {
      type: DT_INT32
    }
  }
  attr {
    key: "_class"
    value {
      list {
        s: "loc:@generator/encoder_4/conv2d/kernel"
      }
    }
  }
  attr {
    key: "_output_shapes"
    value {
      list {
        shape {
          dim {
            size: 4
          }
          dim {
            size: 4
          }
          dim {
            size: 256
          }
          dim {
            size: 512
          }
        }
      }
    }
  }
  attr {
    key: "dtype"
    value {
      type: DT_FLOAT
    }
  }
  attr {
    key: "seed"
    value {
      i: 2122079
    }
  }
  attr {
    key: "seed2"
    value {
      i: 5
    }
  }
}
node {
  name: "generator/encoder_4/conv2d/kernel/Initializer/random_normal/mul"
  op: "Mul"
  input: "generator/encoder_4/conv2d/kernel/Initializer/random_normal/RandomStandardNormal"
  input: "generator/encoder_4/conv2d/kernel/Initializer/random_normal/stddev"
  attr {
    key: "T"
    value {
      type: DT_FLOAT
    }
  }
  attr {
    key: "_class"
    value {
      list {
        s: "loc:@generator/encoder_4/conv2d/kernel"
      }
    }
  }
  attr {
    key: "_output_shapes"
    value {
      list {
        shape {
          dim {
            size: 4
          }
          dim {
            size: 4
          }
          dim {
            size: 256
          }
          dim {
            size: 512
          }
        }
      }
    }
  }
}
node {
  name: "generator/encoder_4/conv2d/kernel/Initializer/random_normal"
  op: "AddV2"
…
  input: "^generator/decoder_8/batch_normalization/beta/Adam_1/Assign"
  input: "^generator/decoder_8/batch_normalization/beta/Assign"
  input: "^generator/decoder_8/batch_normalization/gamma/Adam/Assign"
  input: "^generator/decoder_8/batch_normalization/gamma/Adam_1/Assign"
  input: "^generator/decoder_8/batch_normalization/gamma/Assign"
  input: "^generator/decoder_8/batch_normalization/moving_mean/Assign"
  input: "^generator/decoder_8/batch_normalization/moving_variance/Assign"
  input: "^generator/decoder_8/conv2d_transpose/bias/Adam/Assign"
  input: "^generator/decoder_8/conv2d_transpose/bias/Adam_1/Assign"
  input: "^generator/decoder_8/conv2d_transpose/bias/Assign"
  input: "^generator/decoder_8/conv2d_transpose/kernel/Adam/Assign"
  input: "^generator/decoder_8/conv2d_transpose/kernel/Adam_1/Assign"
  input: "^generator/decoder_8/conv2d_transpose/kernel/Assign"
  input: "^generator/encoder_1/conv2d/bias/Adam/Assign"
  input: "^generator/encoder_1/conv2d/bias/Adam_1/Assign"
  input: "^generator/encoder_1/conv2d/bias/Assign"
  input: "^generator/encoder_1/conv2d/kernel/Adam/Assign"
  input: "^generator/encoder_1/conv2d/kernel/Adam_1/Assign"
  input: "^generator/encoder_1/conv2d/kernel/Assign"
  input: "^generator/encoder_2/batch_normalization/beta/Adam/Assign"
  input: "^generator/encoder_2/batch_normalization/beta/Adam_1/Assign"
  input: "^generator/encoder_2/batch_normalization/beta/Assign"
  input: "^generator/encoder_2/batch_normalization/gamma/Adam/Assign"
  input: "^generator/encoder_2/batch_normalization/gamma/Adam_1/Assign"
  input: "^generator/encoder_2/batch_normalization/gamma/Assign"
  input: "^generator/encoder_2/batch_normalization/moving_mean/Assign"
  input: "^generator/encoder_2/batch_normalization/moving_variance/Assign"
  input: "^generator/encoder_2/conv2d/bias/Adam/Assign"
  input: "^generator/encoder_2/conv2d/bias/Adam_1/Assign"
  input: "^generator/encoder_2/conv2d/bias/Assign"
  input: "^generator/encoder_2/conv2d/kernel/Adam/Assign"
  input: "^generator/encoder_2/conv2d/kernel/Adam_1/Assign"
  input: "^generator/encoder_2/conv2d/kernel/Assign"
  input: "^generator/encoder_3/batch_normalization/beta/Adam/Assign"
  input: "^generator/encoder_3/batch_normalization/beta/Adam_1/Assign"
  input: "^generator/encoder_3/batch_normalization/beta/Assign"
  input: "^generator/encoder_3/batch_normalization/gamma/Adam/Assign"
  input: "^generator/encoder_3/batch_normalization/gamma/Adam_1/Assign"
  input: "^generator/encoder_3/batch_normalization/gamma/Assign"
  input: "^generator/encoder_3/batch_normalization/moving_mean/Assign"
  input: "^generator/encoder_3/batch_normalization/moving_variance/Assign"
  input: "^generator/encoder_3/conv2d/bias/Adam/Assign"
  input: "^generator/encoder_3/conv2d/bias/Adam_1/Assign"
  input: "^generator/encoder_3/conv2d/bias/Assign"
  input: "^generator/encoder_3/conv2d/kernel/Adam/Assign"
  input: "^generator/encoder_3/conv2d/kernel/Adam_1/Assign"
  input: "^generator/encoder_3/conv2d/kernel/Assign"
  input: "^generator/encoder_4/batch_normalization/beta/Adam/Assign"
  input: "^generator/encoder_4/batch_normalization/beta/Adam_1/Assign"
  input: "^generator/encoder_4/batch_normalization/beta/Assign"
  input: "^generator/encoder_4/batch_normalization/gamma/Adam/Assign"
  input: "^generator/encoder_4/batch_normalization/gamma/Adam_1/Assign"
  input: "^generator/encoder_4/batch_normalization/gamma/Assign"
  input: "^generator/encoder_4/batch_normalization/moving_mean/Assign"
  input: "^generator/encoder_4/batch_normalization/moving_variance/Assign"
  input: "^generator/encoder_4/conv2d/bias/Adam/Assign"
  input: "^generator/encoder_4/conv2d/bias/Adam_1/Assign"
  input: "^generator/encoder_4/conv2d/bias/Assign"
  input: "^generator/encoder_4/conv2d/kernel/Adam/Assign"
  input: "^generator/encoder_4/conv2d/kernel/Adam_1/Assign"
  input: "^generator/encoder_4/conv2d/kernel/Assign"
  input: "^generator/encoder_5/batch_normalization/beta/Adam/Assign"
  input: "^generator/encoder_5/batch_normalization/beta/Adam_1/Assign"
  input: "^generator/encoder_5/batch_normalization/beta/Assign"
  input: "^generator/encoder_5/batch_normalization/gamma/Adam/Assign"
  input: "^generator/encoder_5/batch_normalization/gamma/Adam_1/Assign"
  input: "^generator/encoder_5/batch_normalization/gamma/Assign"
  input: "^generator/encoder_5/batch_normalization/moving_mean/Assign"
  input: "^generator/encoder_5/batch_normalization/moving_variance/Assign"
  input: "^generator/encoder_5/conv2d/bias/Adam/Assign"
  input: "^generator/encoder_5/conv2d/bias/Adam_1/Assign"
  input: "^generator/encoder_5/conv2d/bias/Assign"
  input: "^generator/encoder_5/conv2d/kernel/Adam/Assign"
  input: "^generator/encoder_5/conv2d/kernel/Adam_1/Assign"
  input: "^generator/encoder_5/conv2d/kernel/Assign"
  input: "^generator/encoder_6/batch_normalization/beta/Adam/Assign"
  input: "^generator/encoder_6/batch_normalization/beta/Adam_1/Assign"
  input: "^generator/encoder_6/batch_normalization/beta/Assign"
  input: "^generator/encoder_6/batch_normalization/gamma/Adam/Assign"
  input: "^generator/encoder_6/batch_normalization/gamma/Adam_1/Assign"
  input: "^generator/encoder_6/batch_normalization/gamma/Assign"
  input: "^generator/encoder_6/batch_normalization/moving_mean/Assign"
  input: "^generator/encoder_6/batch_normalization/moving_variance/Assign"
  input: "^generator/encoder_6/conv2d/bias/Adam/Assign"
  input: "^generator/encoder_6/conv2d/bias/Adam_1/Assign"
  input: "^generator/encoder_6/conv2d/bias/Assign"
  input: "^generator/encoder_6/conv2d/kernel/Adam/Assign"
  input: "^generator/encoder_6/conv2d/kernel/Adam_1/Assign"
  input: "^generator/encoder_6/conv2d/kernel/Assign"
  input: "^generator/encoder_7/batch_normalization/beta/Adam/Assign"
  input: "^generator/encoder_7/batch_normalization/beta/Adam_1/Assign"
  input: "^generator/encoder_7/batch_normalization/beta/Assign"
  input: "^generator/encoder_7/batch_normalization/gamma/Adam/Assign"
  input: "^generator/encoder_7/batch_normalization/gamma/Adam_1/Assign"
  input: "^generator/encoder_7/batch_normalization/gamma/Assign"
  input: "^generator/encoder_7/batch_normalization/moving_mean/Assign"
  input: "^generator/encoder_7/batch_normalization/moving_variance/Assign"
  input: "^generator/encoder_7/conv2d/bias/Adam/Assign"
  input: "^generator/encoder_7/conv2d/bias/Adam_1/Assign"
  input: "^generator/encoder_7/conv2d/bias/Assign"
  input: "^generator/encoder_7/conv2d/kernel/Adam/Assign"
  input: "^generator/encoder_7/conv2d/kernel/Adam_1/Assign"
  input: "^generator/encoder_7/conv2d/kernel/Assign"
  input: "^generator/encoder_8/batch_normalization/beta/Adam/Assign"
  input: "^generator/encoder_8/batch_normalization/beta/Adam_1/Assign"
  input: "^generator/encoder_8/batch_normalization/beta/Assign"
  input: "^generator/encoder_8/batch_normalization/gamma/Adam/Assign"
  input: "^generator/encoder_8/batch_normalization/gamma/Adam_1/Assign"
  input: "^generator/encoder_8/batch_normalization/gamma/Assign"
  input: "^generator/encoder_8/batch_normalization/moving_mean/Assign"
  input: "^generator/encoder_8/batch_normalization/moving_variance/Assign"
  input: "^generator/encoder_8/conv2d/bias/Adam/Assign"
  input: "^generator/encoder_8/conv2d/bias/Adam_1/Assign"
  input: "^generator/encoder_8/conv2d/bias/Assign"
  input: "^generator/encoder_8/conv2d/kernel/Adam/Assign"
  input: "^generator/encoder_8/conv2d/kernel/Adam_1/Assign"
  input: "^generator/encoder_8/conv2d/kernel/Assign"
  input: "^generator_loss/Mean/ExponentialMovingAverage/Assign"
  input: "^generator_loss/Mean_1/ExponentialMovingAverage/Assign"
  input: "^generator_train/beta1_power/Assign"
  input: "^generator_train/beta2_power/Assign"
  input: "^global_step/Assign"
}
node {
  name: "init_1"
  op: "NoOp"
}
node {
  name: "init_all_tables"
  op: "NoOp"
}
node {
  name: "group_deps_1"
  op: "NoOp"
  input: "^init_1"
  input: "^init_all_tables"
}
node {
  name: "Merge/MergeSummary"
  op: "MergeSummary"
  input: "load_images/input_producer/fraction_of_32_full"
  input: "batch/fraction_of_32_full"
  input: "inputs_summary/inputs"
  input: "targets_summary/targets"
  input: "outputs_summary/outputs"
  input: "predict_real_summary/predict_real"
  input: "predict_fake_summary/predict_fake"
  input: "discriminator_loss_1"
  input: "generator_loss_GAN"
  input: "generator_loss_L1"
  input: "generator/encoder_1/conv2d/kernel/values"
  input: "generator/encoder_1/conv2d/bias/values"
  input: "generator/encoder_2/conv2d/kernel/values"
  input: "generator/encoder_2/conv2d/bias/values"
  input: "generator/encoder_2/batch_normalization/gamma/values"
  input: "generator/encoder_2/batch_normalization/beta/values"
  input: "generator/encoder_3/conv2d/kernel/values"
  input: "generator/encoder_3/conv2d/bias/values"
  input: "generator/encoder_3/batch_normalization/gamma/values"
  input: "generator/encoder_3/batch_normalization/beta/values"
  input: "generator/encoder_4/conv2d/kernel/values"
  input: "generator/encoder_4/conv2d/bias/values"
  input: "generator/encoder_4/batch_normalization/gamma/values"
  input: "generator/encoder_4/batch_normalization/beta/values"
  input: "generator/encoder_5/conv2d/kernel/values"
  input: "generator/encoder_5/conv2d/bias/values"
  input: "generator/encoder_5/batch_normalization/gamma/values"
  input: "generator/encoder_5/batch_normalization/beta/values"
  input: "generator/encoder_6/conv2d/kernel/values"
  input: "generator/encoder_6/conv2d/bias/values"
  input: "generator/encoder_6/batch_normalization/gamma/values"
  input: "generator/encoder_6/batch_normalization/beta/values"
  input: "generator/encoder_7/conv2d/kernel/values"
  input: "generator/encoder_7/conv2d/bias/values"
  input: "generator/encoder_7/batch_normalization/gamma/values"
  input: "generator/encoder_7/batch_normalization/beta/values"
  input: "generator/encoder_8/conv2d/kernel/values"
  input: "generator/encoder_8/conv2d/bias/values"
  input: "generator/encoder_8/batch_normalization/gamma/values"
  input: "generator/encoder_8/batch_normalization/beta/values"
  input: "generator/decoder_8/conv2d_transpose/kernel/values"
  input: "generator/decoder_8/conv2d_transpose/bias/values"
  input: "generator/decoder_8/batch_normalization/gamma/values"
  input: "generator/decoder_8/batch_normalization/beta/values"
  input: "generator/decoder_7/conv2d_transpose/kernel/values"
  input: "generator/decoder_7/conv2d_transpose/bias/values"
  input: "generator/decoder_7/batch_normalization/gamma/values"
  input: "generator/decoder_7/batch_normalization/beta/values"
  input: "generator/decoder_6/conv2d_transpose/kernel/values"
  input: "generator/decoder_6/conv2d_transpose/bias/values"
  input: "generator/decoder_6/batch_normalization/gamma/values"
  input: "generator/decoder_6/batch_normalization/beta/values"
  input: "generator/decoder_5/conv2d_transpose/kernel/values"
  input: "generator/decoder_5/conv2d_transpose/bias/values"
  input: "generator/decoder_5/batch_normalization/gamma/values"
  input: "generator/decoder_5/batch_normalization/beta/values"
  input: "generator/decoder_4/conv2d_transpose/kernel/values"
  input: "generator/decoder_4/conv2d_transpose/bias/values"
  input: "generator/decoder_4/batch_normalization/gamma/values"
  input: "generator/decoder_4/batch_normalization/beta/values"
  input: "generator/decoder_3/conv2d_transpose/kernel/values"
  input: "generator/decoder_3/conv2d_transpose/bias/values"
  input: "generator/decoder_3/batch_normalization/gamma/values"
  input: "generator/decoder_3/batch_normalization/beta/values"
  input: "generator/decoder_2/conv2d_transpose/kernel/values"
  input: "generator/decoder_2/conv2d_transpose/bias/values"
  input: "generator/decoder_2/batch_normalization/gamma/values"
  input: "generator/decoder_2/batch_normalization/beta/values"
  input: "generator/decoder_1/conv2d_transpose/kernel/values"
  input: "generator/decoder_1/conv2d_transpose/bias/values"
  input: "discriminator/layer_1/conv2d/kernel/values"
  input: "discriminator/layer_1/conv2d/bias/values"
  input: "discriminator/layer_2/conv2d/kernel/values"
  input: "discriminator/layer_2/conv2d/bias/values"
  input: "discriminator/layer_2/batch_normalization/gamma/values"
  input: "discriminator/layer_2/batch_normalization/beta/values"
  input: "discriminator/layer_3/conv2d/kernel/values"
  input: "discriminator/layer_3/conv2d/bias/values"
  input: "discriminator/layer_3/batch_normalization/gamma/values"
  input: "discriminator/layer_3/batch_normalization/beta/values"
  input: "discriminator/layer_4/conv2d/kernel/values"
  input: "discriminator/layer_4/conv2d/bias/values"
  input: "discriminator/layer_4/batch_normalization/gamma/values"
  input: "discriminator/layer_4/batch_normalization/beta/values"
  input: "discriminator/layer_5/conv2d/kernel/values"
  input: "discriminator/layer_5/conv2d/bias/values"
  input: "discriminator/layer_1/conv2d/kernel/gradients"
  input: "discriminator/layer_1/conv2d/bias/gradients"
  input: "discriminator/layer_2/conv2d/kernel/gradients"
  input: "discriminator/layer_2/conv2d/bias/gradients"
  input: "discriminator/layer_2/batch_normalization/gamma/gradients"
  input: "discriminator/layer_2/batch_normalization/beta/gradients"
  input: "discriminator/layer_3/conv2d/kernel/gradients"
  input: "discriminator/layer_3/conv2d/bias/gradients"
  input: "discriminator/layer_3/batch_normalization/gamma/gradients"
  input: "discriminator/layer_3/batch_normalization/beta/gradients"
  input: "discriminator/layer_4/conv2d/kernel/gradients"
  input: "discriminator/layer_4/conv2d/bias/gradients"
  input: "discriminator/layer_4/batch_normalization/gamma/gradients"
  input: "discriminator/layer_4/batch_normalization/beta/gradients"
  input: "discriminator/layer_5/conv2d/kernel/gradients"
  input: "discriminator/layer_5/conv2d/bias/gradients"
  input: "generator/encoder_1/conv2d/kernel/gradients"
  input: "generator/encoder_1/conv2d/bias/gradients"
  input: "generator/encoder_2/conv2d/kernel/gradients"
  input: "generator/encoder_2/conv2d/bias/gradients"
  input: "generator/encoder_2/batch_normalization/gamma/gradients"
  input: "generator/encoder_2/batch_normalization/beta/gradients"
  input: "generator/encoder_3/conv2d/kernel/gradients"
  input: "generator/encoder_3/conv2d/bias/gradients"
  input: "generator/encoder_3/batch_normalization/gamma/gradients"
  input: "generator/encoder_3/batch_normalization/beta/gradients"
  input: "generator/encoder_4/conv2d/kernel/gradients"
  input: "generator/encoder_4/conv2d/bias/gradients"
  input: "generator/encoder_4/batch_normalization/gamma/gradients"
  input: "generator/encoder_4/batch_normalization/beta/gradients"
  input: "generator/encoder_5/conv2d/kernel/gradients"
  input: "generator/encoder_5/conv2d/bias/gradients"
  input: "generator/encoder_5/batch_normalization/gamma/gradients"
  input: "generator/encoder_5/batch_normalization/beta/gradients"
  input: "generator/encoder_6/conv2d/kernel/gradients"
  input: "generator/encoder_6/conv2d/bias/gradients"
  input: "generator/encoder_6/batch_normalization/gamma/gradients"
  input: "generator/encoder_6/batch_normalization/beta/gradients"
  input: "generator/encoder_7/conv2d/kernel/gradients"
  input: "generator/encoder_7/conv2d/bias/gradients"
  input: "generator/encoder_7/batch_normalization/gamma/gradients"
  input: "generator/encoder_7/batch_normalization/beta/gradients"
  input: "generator/encoder_8/conv2d/kernel/gradients"
  input: "generator/encoder_8/conv2d/bias/gradients"
  input: "generator/encoder_8/batch_normalization/gamma/gradients"
  input: "generator/encoder_8/batch_normalization/beta/gradients"
  input: "generator/decoder_8/conv2d_transpose/kernel/gradients"
  input: "generator/decoder_8/conv2d_transpose/bias/gradients"
  input: "generator/decoder_8/batch_normalization/gamma/gradients"
  input: "generator/decoder_8/batch_normalization/beta/gradients"
  input: "generator/decoder_7/conv2d_transpose/kernel/gradients"
  input: "generator/decoder_7/conv2d_transpose/bias/gradients"
  input: "generator/decoder_7/batch_normalization/gamma/gradients"
  input: "generator/decoder_7/batch_normalization/beta/gradients"
  input: "generator/decoder_6/conv2d_transpose/kernel/gradients"
  input: "generator/decoder_6/conv2d_transpose/bias/gradients"
  input: "generator/decoder_6/batch_normalization/gamma/gradients"
  input: "generator/decoder_6/batch_normalization/beta/gradients"
  input: "generator/decoder_5/conv2d_transpose/kernel/gradients"
  input: "generator/decoder_5/conv2d_transpose/bias/gradients"
  input: "generator/decoder_5/batch_normalization/gamma/gradients"
  input: "generator/decoder_5/batch_normalization/beta/gradients"
  input: "generator/decoder_4/conv2d_transpose/kernel/gradients"
  input: "generator/decoder_4/conv2d_transpose/bias/gradients"
  input: "generator/decoder_4/batch_normalization/gamma/gradients"
  input: "generator/decoder_4/batch_normalization/beta/gradients"
  input: "generator/decoder_3/conv2d_transpose/kernel/gradients"
  input: "generator/decoder_3/conv2d_transpose/bias/gradients"
  input: "generator/decoder_3/batch_normalization/gamma/gradients"
  input: "generator/decoder_3/batch_normalization/beta/gradients"
  input: "generator/decoder_2/conv2d_transpose/kernel/gradients"
  input: "generator/decoder_2/conv2d_transpose/bias/gradients"
  input: "generator/decoder_2/batch_normalization/gamma/gradients"
  input: "generator/decoder_2/batch_normalization/beta/gradients"
  input: "generator/decoder_1/conv2d_transpose/kernel/gradients"
  input: "generator/decoder_1/conv2d_transpose/bias/gradients"
  attr {
    key: "N"
    value {
      i: 162
    }
  }
  attr {
    key: "_output_shapes"
    value {
      list {
        shape {
        }
      }
    }
  }
}
library {
  function {
    signature {
      name: "encode_images_target_pngs_while_cond_4045"
      input_arg {
        name: "encode_images_target_pngs_while_loop_counter"
        type: DT_INT32
      }
      input_arg {
        name: "encode_images_target_pngs_while_maximum_iterations"
        type: DT_INT32
      }
      input_arg {
        name: "placeholder"
        type: DT_INT32
      }
      input_arg {
        name: "placeholder_1"
        type: DT_VARIANT
      }
      input_arg {
        name: "encode_images_target_pngs_while_cond_4045___redundant_placeholder0"
        type: DT_VARIANT
      }
      output_arg {
        name: "logicaland"
        type: DT_BOOL
      }
    }
    node_def {
      name: "Less/y"
      op: "Const"
      attr {
        key: "_output_shapes"
        value {
          list {
            shape {
            }
          }
        }
      }
      attr {
        key: "dtype"
        value {
          type: DT_INT32
        }
      }
      attr {
        key: "value"
        value {
          tensor {
            dtype: DT_INT32
            tensor_shape {
            }
            int_val: 1
          }
        }
      }
    }
    node_def {
      name: "Less"
      op: "Less"
      input: "placeholder"
      input: "Less/y:output:0"
      attr {
        key: "T"
        value {
          type: DT_INT32
        }
      }
      attr {
        key: "_output_shapes"
        value {
          list {
            shape {
            }
          }
        }
      }
    }
    node_def {
      name: "Less_1"
      op: "Less"
      input: "encode_images_target_pngs_while_loop_counter"
      input: "encode_images_target_pngs_while_maximum_iterations"
      attr {
        key: "T"
        value {
          type: DT_INT32
        }
      }
      attr {
        key: "_output_shapes"
        value {
          list {
            shape {
            }
          }
        }
      }
    }
    node_def {
      name: "LogicalAnd"
      op: "LogicalAnd"
      input: "Less_1:z:0"
      input: "Less:z:0"
      attr {
        key: "_output_shapes"
        value {
          list {
            shape {
            }
          }
        }
      }
    }
    ret {
      key: "logicaland"
      value: "LogicalAnd:z:0"
    }
    attr {
      key: "_input_shapes"
      value {
        list {
          shape {
          }
          shape {
          }
          shape {
          }
          shape {
          }
          shape {
            unknown_rank: true
          }
        }
      }
    }
    arg_attr {
      value {
        attr {
          key: "_output_shapes"
          value {
            list {
              shape {
              }
            }
          }
        }
      }
    }
    arg_attr {
      key: 1
      value {
        attr {
          key: "_output_shapes"
          value {
            list {
              shape {
              }
            }
          }
        }
      }
    }
    arg_attr {
      key: 2
      value {
        attr {
          key: "_output_shapes"
          value {
            list {
              shape {
              }
            }
          }
        }
      }
    }
    arg_attr {
      key: 3
      value {
        attr {
          key: "_output_shapes"
          value {
            list {
              shape {
              }
            }
          }
        }
      }
    }
    arg_attr {
      key: 4
      value {
        attr {
          key: "_output_shapes"
          value {
            list {
              shape {
                unknown_rank: true
              }
            }
          }
        }
      }
    }
  }
  function {
    signature {
      name: "encode_images_output_pngs_while_cond_4094"
      input_arg {
        name: "encode_images_output_pngs_while_loop_counter"
        type: DT_INT32
      }
      input_arg {
        name: "encode_images_output_pngs_while_maximum_iterations"
        type: DT_INT32
      }
      input_arg {
        name: "placeholder"
        type: DT_INT32
      }
      input_arg {
        name: "placeholder_1"
        type: DT_VARIANT
      }
      input_arg {
        name: "encode_images_output_pngs_while_cond_4094___redundant_placeholder0"
        type: DT_VARIANT
      }
      output_arg {
        name: "logicaland"
        type: DT_BOOL
      }
    }
    node_def {
      name: "Less/y"
      op: "Const"
      attr {
        key: "_output_shapes"
        value {
          list {
            shape {
            }
          }
        }
      }
      attr {
        key: "dtype"
        value {
          type: DT_INT32
        }
      }
      attr {
        key: "value"
        value {
          tensor {
            dtype: DT_INT32
            tensor_shape {
            }
            int_val: 1
          }
        }
      }
    }
    node_def {
      name: "Less"
      op: "Less"
      input: "placeholder"
      input: "Less/y:output:0"
      attr {
        key: "T"
        value {
          type: DT_INT32
        }
      }
      attr {
        key: "_output_shapes"
        value {
          list {
            shape {
            }
          }
        }
      }
    }
    node_def {
      name: "Less_1"
      op: "Less"
      input: "encode_images_output_pngs_while_loop_counter"
      input: "encode_images_output_pngs_while_maximum_iterations"
      attr {
        key: "T"
        value {
          type: DT_INT32
        }
      }
      attr {
        key: "_output_shapes"
        value {
          list {
            shape {
            }
          }
        }
      }
    }
    node_def {
      name: "LogicalAnd"
      op: "LogicalAnd"
      input: "Less_1:z:0"
      input: "Less:z:0"
      attr {
        key: "_output_shapes"
        value {
          list {
            shape {
            }
          }
        }
      }
    }
    ret {
      key: "logicaland"
      value: "LogicalAnd:z:0"
    }
    attr {
      key: "_input_shapes"
      value {
        list {
          shape {
          }
          shape {
          }
          shape {
          }
          shape {
          }
          shape {
            unknown_rank: true
          }
        }
      }
    }
    arg_attr {
      value {
        attr {
          key: "_output_shapes"
          value {
            list {
              shape {
              }
            }
          }
        }
      }
    }
    arg_attr {
      key: 1
      value {
        attr {
          key: "_output_shapes"
          value {
            list {
              shape {
              }
            }
          }
        }
      }
    }
    arg_attr {
      key: 2
      value {
        attr {
          key: "_output_shapes"
          value {
            list {
              shape {
              }
            }
          }
        }
      }
    }
    arg_attr {
      key: 3
      value {
        attr {
          key: "_output_shapes"
          value {
            list {
              shape {
              }
            }
          }
        }
      }
    }
    arg_attr {
      key: 4
      value {
        attr {
          key: "_output_shapes"
          value {
            list {
              shape {
                unknown_rank: true
              }
            }
          }
        }
      }
    }
  }
  function {
    signature {
      name: "encode_images_input_pngs_while_body_3997"
      input_arg {
        name: "encode_images_input_pngs_while_loop_counter"
        type: DT_INT32
      }
      input_arg {
        name: "encode_images_input_pngs_while_maximum_iterations_0"
        type: DT_INT32
      }
      input_arg {
        name: "placeholder"
        type: DT_INT32
      }
      input_arg {
        name: "placeholder_1"
        type: DT_VARIANT
      }
      input_arg {
        name: "tensorarrayv2read_tensorlistgetitem_encode_images_input_pngs_tensorarrayunstack_tensorlistfromtensor_0"
        type: DT_VARIANT
      }
      output_arg {
        name: "add_1"
        type: DT_INT32
      }
      output_arg {
        name: "encode_images_input_pngs_while_maximum_iterations"
        type: DT_INT32
      }
      output_arg {
        name: "add"
        type: DT_INT32
      }
      output_arg {
        name: "tensorarrayv2write_tensorlistsetitem"
        type: DT_VARIANT
      }
      output_arg {
        name: "tensorarrayv2read_tensorlistgetitem_encode_images_input_pngs_tensorarrayunstack_tensorlistfromtensor"
        type: DT_VARIANT
      }
    }
    node_def {
      name: "TensorArrayV2Read/TensorListGetItem/element_shape"
      op: "Const"
      attr {
        key: "_output_shapes"
        value {
          list {
            shape {
              dim {
                size: 3
              }
            }
          }
        }
      }
      attr {
        key: "dtype"
        value {
          type: DT_INT32
        }
      }
      attr {
        key: "value"
        value {
          tensor {
            dtype: DT_INT32
            tensor_shape {
              dim {
                size: 3
              }
            }
            tensor_content: "\000\001\000\000\000\001\000\000\003\000\000\000"
          }
        }
      }
    }
    node_def {
      name: "TensorArrayV2Read/TensorListGetItem"
      op: "TensorListGetItem"
      input: "tensorarrayv2read_tensorlistgetitem_encode_images_input_pngs_tensorarrayunstack_tensorlistfromtensor_0"
      input: "placeholder"
      input: "TensorArrayV2Read/TensorListGetItem/element_shape:output:0"
      attr {
        key: "_output_shapes"
        value {
          list {
            shape {
              dim {
                size: 256
              }
              dim {
                size: 256
              }
              dim {
                size: 3
              }
            }
          }
        }
      }
      attr {
        key: "element_dtype"
        value {
          type: DT_UINT8
        }
      }
    }
    node_def {
      name: "EncodePng"
      op: "EncodePng"
      input: "TensorArrayV2Read/TensorListGetItem:item:0"
      attr {
        key: "T"
        value {
          type: DT_UINT8
        }
      }
      attr {
        key: "_output_shapes"
        value {
          list {
            shape {
            }
          }
        }
      }
      attr {
        key: "compression"
        value {
          i: -1
        }
      }
    }
    node_def {
      name: "TensorArrayV2Write/TensorListSetItem"
      op: "TensorListSetItem"
      input: "placeholder_1"
      input: "placeholder"
      input: "EncodePng:contents:0"
      attr {
        key: "_output_shapes"
        value {
          list {
            shape {
            }
          }
        }
      }
      attr {
        key: "element_dtype"
        value {
          type: DT_STRING
        }
      }
      experimental_type {
        type_id: TFT_PRODUCT
        args {
          type_id: TFT_ARRAY
          args {
            type_id: TFT_TENSOR
            args {
              type_id: TFT_STRING
            }
          }
        }
      }
    }
    node_def {
      name: "add/y"
      op: "Const"
      attr {
        key: "_output_shapes"
        value {
          list {
            shape {
            }
          }
        }
      }
      attr {
        key: "dtype"
        value {
          type: DT_INT32
        }
      }
      attr {
        key: "value"
        value {
          tensor {
            dtype: DT_INT32
            tensor_shape {
            }
            int_val: 1
          }
        }
      }
    }
    node_def {
      name: "add_0"
      op: "AddV2"
      input: "placeholder"
      input: "add/y:output:0"
      attr {
        key: "T"
        value {
          type: DT_INT32
        }
      }
    }
    node_def {
      name: "add_1/y"
      op: "Const"
      attr {
        key: "_output_shapes"
        value {
          list {
            shape {
            }
          }
        }
      }
      attr {
        key: "dtype"
        value {
          type: DT_INT32
        }
      }
      attr {
        key: "value"
        value {
          tensor {
            dtype: DT_INT32
            tensor_shape {
            }
            int_val: 1
          }
        }
      }
    }
    node_def {
      name: "add_1_0"
      op: "AddV2"
      input: "encode_images_input_pngs_while_loop_counter"
      input: "add_1/y:output:0"
      attr {
        key: "T"
        value {
          type: DT_INT32
        }
      }
    }
    ret {
      key: "add"
      value: "add_0:z:0"
    }
    ret {
      key: "add_1"
      value: "add_1_0:z:0"
    }
    ret {
      key: "encode_images_input_pngs_while_maximum_iterations"
      value: "encode_images_input_pngs_while_maximum_iterations_0"
    }
    ret {
      key: "tensorarrayv2read_tensorlistgetitem_encode_images_input_pngs_tensorarrayunstack_tensorlistfromtensor"
      value: "tensorarrayv2read_tensorlistgetitem_encode_images_input_pngs_tensorarrayunstack_tensorlistfromtensor_0"
    }
    ret {
      key: "tensorarrayv2write_tensorlistsetitem"
      value: "TensorArrayV2Write/TensorListSetItem:output_handle:0"
    }
    attr {
      key: "_input_shapes"
      value {
        list {
          shape {
          }
          shape {
          }
          shape {
          }
          shape {
          }
          shape {
          }
        }
      }
    }
    arg_attr {
      value {
        attr {
          key: "_output_shapes"
          value {
            list {
              shape {
              }
            }
          }
        }
      }
    }
    arg_attr {
      key: 1
      value {
        attr {
          key: "_output_shapes"
          value {
            list {
              shape {
              }
            }
          }
        }
      }
    }
    arg_attr {
      key: 2
      value {
        attr {
          key: "_output_shapes"
          value {
            list {
              shape {
              }
            }
          }
        }
      }
    }
    arg_attr {
      key: 3
      value {
        attr {
          key: "_output_shapes"
          value {
            list {
              shape {
              }
            }
          }
        }
      }
    }
    arg_attr {
      key: 4
      value {
        attr {
          key: "_output_shapes"
          value {
            list {
              shape {
              }
            }
          }
        }
      }
    }
  }
  function {
    signature {
      name: "encode_images_output_pngs_while_body_4095"
      input_arg {
        name: "encode_images_output_pngs_while_loop_counter"
        type: DT_INT32
      }
      input_arg {
        name: "encode_images_output_pngs_while_maximum_iterations_0"
        type: DT_INT32
      }
      input_arg {
        name: "placeholder"
        type: DT_INT32
      }
      input_arg {
        name: "placeholder_1"
        type: DT_VARIANT
      }
      input_arg {
        name: "tensorarrayv2read_tensorlistgetitem_encode_images_output_pngs_tensorarrayunstack_tensorlistfromtensor_0"
        type: DT_VARIANT
      }
      output_arg {
        name: "add_1"
        type: DT_INT32
      }
      output_arg {
        name: "encode_images_output_pngs_while_maximum_iterations"
        type: DT_INT32
      }
      output_arg {
        name: "add"
        type: DT_INT32
      }
      output_arg {
        name: "tensorarrayv2write_tensorlistsetitem"
        type: DT_VARIANT
      }
      output_arg {
        name: "tensorarrayv2read_tensorlistgetitem_encode_images_output_pngs_tensorarrayunstack_tensorlistfromtensor"
        type: DT_VARIANT
      }
    }
    node_def {
      name: "TensorArrayV2Read/TensorListGetItem/element_shape"
      op: "Const"
      attr {
        key: "_output_shapes"
        value {
          list {
            shape {
              dim {
                size: 3
              }
            }
          }
        }
      }
      attr {
        key: "dtype"
        value {
          type: DT_INT32
        }
      }
      attr {
        key: "value"
        value {
          tensor {
            dtype: DT_INT32
            tensor_shape {
              dim {
                size: 3
              }
            }
            tensor_content: "\000\001\000\000\000\001\000\000\003\000\000\000"
          }
        }
      }
    }
    node_def {
      name: "TensorArrayV2Read/TensorListGetItem"
      op: "TensorListGetItem"
      input: "tensorarrayv2read_tensorlistgetitem_encode_images_output_pngs_tensorarrayunstack_tensorlistfromtensor_0"
      input: "placeholder"
      input: "TensorArrayV2Read/TensorListGetItem/element_shape:output:0"
      attr {
        key: "_output_shapes"
        value {
          list {
            shape {
              dim {
                size: 256
              }
              dim {
                size: 256
              }
              dim {
                size: 3
              }
            }
          }
        }
      }
      attr {
        key: "element_dtype"
        value {
          type: DT_UINT8
        }
      }
    }
    node_def {
      name: "EncodePng"
      op: "EncodePng"
      input: "TensorArrayV2Read/TensorListGetItem:item:0"
      attr {
        key: "T"
        value {
          type: DT_UINT8
        }
      }
      attr {
        key: "_output_shapes"
        value {
          list {
            shape {
            }
          }
        }
      }
      attr {
        key: "compression"
        value {
          i: -1
        }
      }
    }
    node_def {
      name: "TensorArrayV2Write/TensorListSetItem"
      op: "TensorListSetItem"
      input: "placeholder_1"
      input: "placeholder"
      input: "EncodePng:contents:0"
      attr {
        key: "_output_shapes"
        value {
          list {
            shape {
            }
          }
        }
      }
      attr {
        key: "element_dtype"
        value {
          type: DT_STRING
        }
      }
      experimental_type {
        type_id: TFT_PRODUCT
        args {
          type_id: TFT_ARRAY
          args {
            type_id: TFT_TENSOR
            args {
              type_id: TFT_STRING
            }
          }
        }
      }
    }
    node_def {
      name: "add/y"
      op: "Const"
      attr {
        key: "_output_shapes"
        value {
          list {
            shape {
            }
          }
        }
      }
      attr {
        key: "dtype"
        value {
          type: DT_INT32
        }
      }
      attr {
        key: "value"
        value {
          tensor {
            dtype: DT_INT32
            tensor_shape {
            }
            int_val: 1
          }
        }
      }
    }
    node_def {
      name: "add_0"
      op: "AddV2"
      input: "placeholder"
      input: "add/y:output:0"
      attr {
        key: "T"
        value {
          type: DT_INT32
        }
      }
    }
    node_def {
      name: "add_1/y"
      op: "Const"
      attr {
        key: "_output_shapes"
        value {
          list {
            shape {
            }
          }
        }
      }
      attr {
        key: "dtype"
        value {
          type: DT_INT32
        }
      }
      attr {
        key: "value"
        value {
          tensor {
            dtype: DT_INT32
            tensor_shape {
            }
            int_val: 1
          }
        }
      }
    }
    node_def {
      name: "add_1_0"
      op: "AddV2"
      input: "encode_images_output_pngs_while_loop_counter"
      input: "add_1/y:output:0"
      attr {
        key: "T"
        value {
          type: DT_INT32
        }
      }
    }
    ret {
      key: "add"
      value: "add_0:z:0"
    }
    ret {
      key: "add_1"
      value: "add_1_0:z:0"
    }
    ret {
      key: "encode_images_output_pngs_while_maximum_iterations"
      value: "encode_images_output_pngs_while_maximum_iterations_0"
    }
    ret {
      key: "tensorarrayv2read_tensorlistgetitem_encode_images_output_pngs_tensorarrayunstack_tensorlistfromtensor"
      value: "tensorarrayv2read_tensorlistgetitem_encode_images_output_pngs_tensorarrayunstack_tensorlistfromtensor_0"
    }
    ret {
      key: "tensorarrayv2write_tensorlistsetitem"
      value: "TensorArrayV2Write/TensorListSetItem:output_handle:0"
    }
    attr {
      key: "_input_shapes"
      value {
        list {
          shape {
          }
          shape {
          }
          shape {
          }
          shape {
          }
          shape {
          }
        }
      }
    }
    arg_attr {
      value {
        attr {
          key: "_output_shapes"
          value {
            list {
              shape {
              }
            }
          }
        }
      }
    }
    arg_attr {
      key: 1
      value {
        attr {
          key: "_output_shapes"
          value {
            list {
              shape {
              }
            }
          }
        }
      }
    }
    arg_attr {
      key: 2
      value {
        attr {
          key: "_output_shapes"
          value {
            list {
              shape {
              }
            }
          }
        }
      }
    }
    arg_attr {
      key: 3
      value {
        attr {
          key: "_output_shapes"
          value {
            list {
              shape {
              }
            }
          }
        }
      }
    }
    arg_attr {
      key: 4
      value {
        attr {
          key: "_output_shapes"
          value {
            list {
              shape {
              }
            }
          }
        }
      }
    }
  }
  function {
    signature {
      name: "encode_images_target_pngs_while_body_4046"
      input_arg {
        name: "encode_images_target_pngs_while_loop_counter"
        type: DT_INT32
      }
      input_arg {
        name: "encode_images_target_pngs_while_maximum_iterations_0"
        type: DT_INT32
      }
      input_arg {
        name: "placeholder"
        type: DT_INT32
      }
      input_arg {
        name: "placeholder_1"
        type: DT_VARIANT
      }
      input_arg {
        name: "tensorarrayv2read_tensorlistgetitem_encode_images_target_pngs_tensorarrayunstack_tensorlistfromtensor_0"
        type: DT_VARIANT
      }
      output_arg {
        name: "add_1"
        type: DT_INT32
      }
      output_arg {
        name: "encode_images_target_pngs_while_maximum_iterations"
        type: DT_INT32
      }
      output_arg {
        name: "add"
        type: DT_INT32
      }
      output_arg {
        name: "tensorarrayv2write_tensorlistsetitem"
        type: DT_VARIANT
      }
      output_arg {
        name: "tensorarrayv2read_tensorlistgetitem_encode_images_target_pngs_tensorarrayunstack_tensorlistfromtensor"
        type: DT_VARIANT
      }
    }
    node_def {
      name: "TensorArrayV2Read/TensorListGetItem/element_shape"
      op: "Const"
      attr {
        key: "_output_shapes"
        value {
          list {
            shape {
              dim {
                size: 3
              }
            }
          }
        }
      }
      attr {
        key: "dtype"
        value {
          type: DT_INT32
        }
      }
      attr {
        key: "value"
        value {
          tensor {
            dtype: DT_INT32
            tensor_shape {
              dim {
                size: 3
              }
            }
            tensor_content: "\000\001\000\000\000\001\000\000\003\000\000\000"
          }
        }
      }
    }
    node_def {
      name: "TensorArrayV2Read/TensorListGetItem"
      op: "TensorListGetItem"
      input: "tensorarrayv2read_tensorlistgetitem_encode_images_target_pngs_tensorarrayunstack_tensorlistfromtensor_0"
      input: "placeholder"
      input: "TensorArrayV2Read/TensorListGetItem/element_shape:output:0"
      attr {
        key: "_output_shapes"
        value {
          list {
            shape {
              dim {
                size: 256
              }
              dim {
                size: 256
              }
              dim {
                size: 3
              }
            }
          }
        }
      }
      attr {
        key: "element_dtype"
        value {
          type: DT_UINT8
        }
      }
    }
    node_def {
      name: "EncodePng"
      op: "EncodePng"
      input: "TensorArrayV2Read/TensorListGetItem:item:0"
      attr {
        key: "T"
        value {
          type: DT_UINT8
        }
      }
      attr {
        key: "_output_shapes"
        value {
          list {
            shape {
            }
          }
        }
      }
      attr {
        key: "compression"
        value {
          i: -1
        }
      }
    }
    node_def {
      name: "TensorArrayV2Write/TensorListSetItem"
      op: "TensorListSetItem"
      input: "placeholder_1"
      input: "placeholder"
      input: "EncodePng:contents:0"
      attr {
        key: "_output_shapes"
        value {
          list {
            shape {
            }
          }
        }
      }
      attr {
        key: "element_dtype"
        value {
          type: DT_STRING
        }
      }
      experimental_type {
        type_id: TFT_PRODUCT
        args {
          type_id: TFT_ARRAY
          args {
            type_id: TFT_TENSOR
            args {
              type_id: TFT_STRING
            }
          }
        }
      }
    }
    node_def {
      name: "add/y"
      op: "Const"
      attr {
        key: "_output_shapes"
        value {
          list {
            shape {
            }
          }
        }
      }
      attr {
        key: "dtype"
        value {
          type: DT_INT32
        }
      }
      attr {
        key: "value"
        value {
          tensor {
            dtype: DT_INT32
            tensor_shape {
            }
            int_val: 1
          }
        }
      }
    }
    node_def {
      name: "add_0"
      op: "AddV2"
      input: "placeholder"
      input: "add/y:output:0"
      attr {
        key: "T"
        value {
          type: DT_INT32
        }
      }
    }
    node_def {
      name: "add_1/y"
      op: "Const"
      attr {
        key: "_output_shapes"
        value {
          list {
            shape {
            }
          }
        }
      }
      attr {
        key: "dtype"
        value {
          type: DT_INT32
        }
      }
      attr {
        key: "value"
        value {
          tensor {
            dtype: DT_INT32
            tensor_shape {
            }
            int_val: 1
          }
        }
      }
    }
    node_def {
      name: "add_1_0"
      op: "AddV2"
      input: "encode_images_target_pngs_while_loop_counter"
      input: "add_1/y:output:0"
      attr {
        key: "T"
        value {
          type: DT_INT32
        }
      }
    }
    ret {
      key: "add"
      value: "add_0:z:0"
    }
    ret {
      key: "add_1"
      value: "add_1_0:z:0"
    }
    ret {
      key: "encode_images_target_pngs_while_maximum_iterations"
      value: "encode_images_target_pngs_while_maximum_iterations_0"
    }
    ret {
      key: "tensorarrayv2read_tensorlistgetitem_encode_images_target_pngs_tensorarrayunstack_tensorlistfromtensor"
      value: "tensorarrayv2read_tensorlistgetitem_encode_images_target_pngs_tensorarrayunstack_tensorlistfromtensor_0"
    }
    ret {
      key: "tensorarrayv2write_tensorlistsetitem"
      value: "TensorArrayV2Write/TensorListSetItem:output_handle:0"
    }
    attr {
      key: "_input_shapes"
      value {
        list {
          shape {
          }
          shape {
          }
          shape {
          }
          shape {
          }
          shape {
          }
        }
      }
    }
    arg_attr {
      value {
        attr {
          key: "_output_shapes"
          value {
            list {
              shape {
              }
            }
          }
        }
      }
    }
    arg_attr {
      key: 1
      value {
        attr {
          key: "_output_shapes"
          value {
            list {
              shape {
              }
            }
          }
        }
      }
    }
    arg_attr {
      key: 2
      value {
        attr {
          key: "_output_shapes"
          value {
            list {
              shape {
              }
            }
          }
        }
      }
    }
    arg_attr {
      key: 3
      value {
        attr {
          key: "_output_shapes"
          value {
            list {
              shape {
              }
            }
          }
        }
      }
    }
    arg_attr {
      key: 4
      value {
        attr {
          key: "_output_shapes"
          value {
            list {
              shape {
              }
            }
          }
        }
      }
    }
  }
  function {
    signature {
      name: "encode_images_input_pngs_while_cond_3996"
      input_arg {
        name: "encode_images_input_pngs_while_loop_counter"
        type: DT_INT32
      }
      input_arg {
        name: "encode_images_input_pngs_while_maximum_iterations"
        type: DT_INT32
      }
      input_arg {
        name: "placeholder"
        type: DT_INT32
      }
      input_arg {
        name: "placeholder_1"
        type: DT_VARIANT
      }
      input_arg {
        name: "encode_images_input_pngs_while_cond_3996___redundant_placeholder0"
        type: DT_VARIANT
      }
      output_arg {
        name: "logicaland"
        type: DT_BOOL
      }
    }
    node_def {
      name: "Less/y"
      op: "Const"
      attr {
        key: "_output_shapes"
        value {
          list {
            shape {
            }
          }
        }
      }
      attr {
        key: "dtype"
        value {
          type: DT_INT32
        }
      }
      attr {
        key: "value"
        value {
          tensor {
            dtype: DT_INT32
            tensor_shape {
            }
            int_val: 1
          }
        }
      }
    }
    node_def {
      name: "Less"
      op: "Less"
      input: "placeholder"
      input: "Less/y:output:0"
      attr {
        key: "T"
        value {
          type: DT_INT32
        }
      }
      attr {
        key: "_output_shapes"
        value {
          list {
            shape {
            }
          }
        }
      }
    }
    node_def {
      name: "Less_1"
      op: "Less"
      input: "encode_images_input_pngs_while_loop_counter"
      input: "encode_images_input_pngs_while_maximum_iterations"
      attr {
        key: "T"
        value {
          type: DT_INT32
        }
      }
      attr {
        key: "_output_shapes"
        value {
          list {
            shape {
            }
          }
        }
      }
    }
    node_def {
      name: "LogicalAnd"
      op: "LogicalAnd"
      input: "Less_1:z:0"
      input: "Less:z:0"
      attr {
        key: "_output_shapes"
        value {
          list {
            shape {
            }
          }
        }
      }
    }
    ret {
      key: "logicaland"
      value: "LogicalAnd:z:0"
    }
    attr {
      key: "_input_shapes"
      value {
        list {
          shape {
          }
          shape {
          }
          shape {
          }
          shape {
          }
          shape {
            unknown_rank: true
          }
        }
      }
    }
    arg_attr {
      value {
        attr {
          key: "_output_shapes"
          value {
            list {
              shape {
              }
            }
          }
        }
      }
    }
    arg_attr {
      key: 1
      value {
        attr {
          key: "_output_shapes"
          value {
            list {
              shape {
              }
            }
          }
        }
      }
    }
    arg_attr {
      key: 2
      value {
        attr {
          key: "_output_shapes"
          value {
            list {
              shape {
              }
            }
          }
        }
      }
    }
    arg_attr {
      key: 3
      value {
        attr {
          key: "_output_shapes"
          value {
            list {
              shape {
              }
            }
          }
        }
      }
    }
    arg_attr {
      key: 4
      value {
        attr {
          key: "_output_shapes"
          value {
            list {
              shape {
                unknown_rank: true
              }
            }
          }
        }
      }
    }
  }
}
versions {
  producer: 1205
  min_consumer: 12
}
